…
I0228 11:22:51.345896  9676 upgrade_proto.cpp:77] Attempting to upgrade batch norm layers using deprecated params: /core1/data/home/shizhan/jiahuan/siamese_shelf/res50/models/res50_multigpu_new.prototxt
I0228 11:22:51.346010  9676 upgrade_proto.cpp:80] Successfully upgraded batch norm layers using deprecated params.
I0228 11:22:51.351166  9676 net.cpp:51] Initializing net from parameters: 
name: "ResNet-50"
state {
  phase: TRAIN
}
layer {
  name: "data"
  type: "Python"
  top: "pairs"
  python_param {
    module: "datalayer"
    layer: "DataLayerWLoss"
  }
}
layer {
  name: "slice"
  type: "Slice"
  bottom: "pairs"
  top: "data"
  top: "data_p"
  slice_param {
    slice_point: 3
    axis: 1
  }
}
layer {
  name: "conv1"
  type: "Convolution"
  bottom: "data"
  top: "conv1"
  param {
    name: "conv1_w"
    lr_mult: 1
  }
  param {
    name: "conv1_b"
    lr_mult: 2
  }
  convolution_param {
    num_output: 64
    pad: 3
    kernel_size: 7
    stride: 2
  }
}
layer {
  name: "bn_conv1"
  type: "BatchNorm"
  bottom: "conv1"
  top: "conv1"
  param {
    name: "bn_conv1_mean"
    lr_mult: 0
    decay_mult: 0
  }
  param {
    name: "bn_conv1_variance"
    lr_mult: 0
    decay_mult: 0
  }
  param {
    name: "bn_conv1_scale_factor"
    lr_mult: 0
    decay_mult: 0
  }
  batch_norm_param {
    use_global_stats: false
  }
}
layer {
  name: "scale_conv1"
  type: "Scale"
  bottom: "conv1"
  top: "conv1"
  param {
    name: "scale_conv1_alpha"
  }
  param {
    name: "scale_conv1_beta"
  }
  scale_param {
    bias_term: true
  }
}
layer {
  name: "conv1_relu"
  type: "ReLU"
  bottom: "conv1"
  top: "conv1"
}
layer {
  name: "pool1"
  type: "Pooling"
  bottom: "conv1"
  top: "pool1"
  pooling_param {
    pool: MAX
    kernel_size: 3
    stride: 2
  }
}
layer {
  name: "res2a_branch1"
  type: "Convolution"
  bottom: "pool1"
  top: "res2a_branch1"
  param {
    name: "res2a_branch1_w"
    lr_mult: 1
  }
  convolution_param {
    num_output: 256
    bias_term: false
    pad: 0
    kernel_size: 1
    stride: 1
  }
}
layer {
  name: "bn2a_branch1"
  type: "BatchNorm"
  bottom: "res2a_branch1"
  top: "res2a_branch1"
  param {
    name: "bn2a_branch1_mean"
    lr_mult: 0
    decay_mult: 0
  }
  param {
    name: "bn2a_branch1_variance"
    lr_mult: 0
    decay_mult: 0
  }
  param {
    name: "bn2a_branch1_scale_factor"
    lr_mult: 0
    decay_mult: 0
  }
  batch_norm_param {
    use_global_stats: false
  }
}
layer {
  name: "scale2a_branch1"
  type: "Scale"
  bottom: "res2a_branch1"
  top: "res2a_branch1"
  param {
    name: "scale2a_branch1_alpha"
  }
  param {
    name: "scale2a_branch1_beta"
  }
  scale_param {
    bias_term: true
  }
}
layer {
  name: "res2a_branch2a"
  type: "Convolution"
  bottom: "pool1"
  top: "res2a_branch2a"
  param {
    name: "res2a_branch2a_w"
    lr_mult: 1
  }
  convolution_param {
    num_output: 64
    bias_term: false
    pad: 0
    kernel_size: 1
    stride: 1
  }
}
layer {
  name: "bn2a_branch2a"
  type: "BatchNorm"
  bottom: "res2a_branch2a"
  top: "res2a_branch2a"
  param {
    name: "bn2a_branch2a_mean"
    lr_mult: 0
    decay_mult: 0
  }
  param {
    name: "bn2a_branch2a_variance"
    lr_mult: 0
    decay_mult: 0
  }
  param {
    name: "bn2a_branch2a_scale_factor"
    lr_mult: 0
    decay_mult: 0
  }
  batch_norm_param {
    use_global_stats: false
  }
}
layer {
  name: "scale2a_branch2a"
  type: "Scale"
  bottom: "res2a_branch2a"
  top: "res2a_branch2a"
  param {
    name: "scale2a_branch2a_alpha"
  }
  param {
    name: "scale2a_branch2a_beta"
  }
  scale_param {
    bias_term: true
  }
}
layer {
  name: "res2a_branch2a_relu"
  type: "ReLU"
  bottom: "res2a_branch2a"
  top: "res2a_branch2a"
}
layer {
  name: "res2a_branch2b"
  type: "Convolution"
  bottom: "res2a_branch2a"
  top: "res2a_branch2b"
  param {
    name: "res2a_branch2b_w"
    lr_mult: 1
  }
  convolution_param {
    num_output: 64
    bias_term: false
    pad: 1
    kernel_size: 3
    stride: 1
  }
}
layer {
  name: "bn2a_branch2b"
  type: "BatchNorm"
  bottom: "res2a_branch2b"
  top: "res2a_branch2b"
  param {
    name: "bn2a_branch2b_mean"
    lr_mult: 0
    decay_mult: 0
  }
  param {
    name: "bn2a_branch2b_variance"
    lr_mult: 0
    decay_mult: 0
  }
  param {
    name: "bn2a_branch2b_scale_factor"
    lr_mult: 0
    decay_mult: 0
  }
  batch_norm_param {
    use_global_stats: false
  }
}
layer {
  name: "scale2a_branch2b"
  type: "Scale"
  bottom: "res2a_branch2b"
  top: "res2a_branch2b"
  param {
    name: "scale2a_branch2b_alpha"
  }
  param {
    name: "scale2a_branch2b_beta"
  }
  scale_param {
    bias_term: true
  }
}
layer {
  name: "res2a_branch2b_relu"
  type: "ReLU"
  bottom: "res2a_branch2b"
  top: "res2a_branch2b"
}
layer {
  name: "res2a_branch2c"
  type: "Convolution"
  bottom: "res2a_branch2b"
  top: "res2a_branch2c"
  param {
    name: "res2a_branch2c_w"
    lr_mult: 1
  }
  convolution_param {
    num_output: 256
    bias_term: false
    pad: 0
    kernel_size: 1
    stride: 1
  }
}
layer {
  name: "bn2a_branch2c"
  type: "BatchNorm"
  bottom: "res2a_branch2c"
  top: "res2a_branch2c"
  param {
    name: "bn2a_branch2c_mean"
    lr_mult: 0
    decay_mult: 0
  }
  param {
    name: "bn2a_branch2c_variance"
    lr_mult: 0
    decay_mult: 0
  }
  param {
    name: "bn2a_branch2c_scale_factor"
    lr_mult: 0
    decay_mult: 0
  }
  batch_norm_param {
    use_global_stats: false
  }
}
layer {
  name: "scale2a_branch2c"
  type: "Scale"
  bottom: "res2a_branch2c"
  top: "res2a_branch2c"
  param {
    name: "scale2a_branch2c_alpha"
  }
  param {
    name: "scale2a_branch2c_beta"
  }
  scale_param {
    bias_term: true
  }
}
layer {
  name: "res2a"
  type: "Eltwise"
  bottom: "res2a_branch1"
  bottom: "res2a_branch2c"
  top: "res2a"
}
layer {
  name: "res2a_relu"
  type: "ReLU"
  bottom: "res2a"
  top: "res2a"
}
layer {
  name: "res2b_branch2a"
  type: "Convolution"
  bottom: "res2a"
  top: "res2b_branch2a"
  param {
    name: "res2b_branch2a_w"
    lr_mult: 1
  }
  convolution_param {
    num_output: 64
    bias_term: false
    pad: 0
    kernel_size: 1
    stride: 1
  }
}
layer {
  name: "bn2b_branch2a"
  type: "BatchNorm"
  bottom: "res2b_branch2a"
  top: "res2b_branch2a"
  param {
    name: "bn2b_branch2a_mean"
    lr_mult: 0
    decay_mult: 0
  }
  param {
    name: "bn2b_branch2a_variance"
    lr_mult: 0
    decay_mult: 0
  }
  param {
    name: "bn2b_branch2a_scale_factor"
    lr_mult: 0
    decay_mult: 0
  }
  batch_norm_param {
    use_global_stats: false
  }
}
layer {
  name: "scale2b_branch2a"
  type: "Scale"
  bottom: "res2b_branch2a"
  top: "res2b_branch2a"
  param {
    name: "scale2b_branch2a_alpha"
  }
  param {
    name: "scale2b_branch2a_beta"
  }
  scale_param {
    bias_term: true
  }
}
layer {
  name: "res2b_branch2a_relu"
  type: "ReLU"
  bottom: "res2b_branch2a"
  top: "res2b_branch2a"
}
layer {
  name: "res2b_branch2b"
  type: "Convolution"
  bottom: "res2b_branch2a"
  top: "res2b_branch2b"
  param {
    name: "res2b_branch2b_w"
    lr_mult: 1
  }
  convolution_param {
    num_output: 64
    bias_term: false
    pad: 1
    kernel_size: 3
    stride: 1
  }
}
layer {
  name: "bn2b_branch2b"
  type: "BatchNorm"
  bottom: "res2b_branch2b"
  top: "res2b_branch2b"
  param {
    name: "bn2b_branch2b_mean"
    lr_mult: 0
    decay_mult: 0
  }
  param {
    name: "bn2b_branch2b_variance"
    lr_mult: 0
    decay_mult: 0
  }
  param {
    name: "bn2b_branch2b_scale_factor"
    lr_mult: 0
    decay_mult: 0
  }
  batch_norm_param {
    use_global_stats: false
  }
}
layer {
  name: "scale2b_branch2b"
  type: "Scale"
  bottom: "res2b_branch2b"
  top: "res2b_branch2b"
  param {
    name: "scale2b_branch2b_alpha"
  }
  param {
    name: "scale2b_branch2b_beta"
  }
  scale_param {
    bias_term: true
  }
}
layer {
  name: "res2b_branch2b_relu"
  type: "ReLU"
  bottom: "res2b_branch2b"
  top: "res2b_branch2b"
}
layer {
  name: "res2b_branch2c"
  type: "Convolution"
  bottom: "res2b_branch2b"
  top: "res2b_branch2c"
  param {
    name: "res2b_branch2c_w"
    lr_mult: 1
  }
  convolution_param {
    num_output: 256
    bias_term: false
    pad: 0
    kernel_size: 1
    stride: 1
  }
}
layer {
  name: "bn2b_branch2c"
  type: "BatchNorm"
  bottom: "res2b_branch2c"
  top: "res2b_branch2c"
  param {
    name: "bn2b_branch2c_mean"
    lr_mult: 0
    decay_mult: 0
  }
  param {
    name: "bn2b_branch2c_variance"
    lr_mult: 0
    decay_mult: 0
  }
  param {
    name: "bn2b_branch2c_scale_factor"
    lr_mult: 0
    decay_mult: 0
  }
  batch_norm_param {
    use_global_stats: false
  }
}
layer {
  name: "scale2b_branch2c"
  type: "Scale"
  bottom: "res2b_branch2c"
  top: "res2b_branch2c"
  param {
    name: "scale2b_branch2c_alpha"
  }
  param {
    name: "scale2b_branch2c_beta"
  }
  scale_param {
    bias_term: true
  }
}
layer {
  name: "res2b"
  type: "Eltwise"
  bottom: "res2a"
  bottom: "res2b_branch2c"
  top: "res2b"
}
layer {
  name: "res2b_relu"
  type: "ReLU"
  bottom: "res2b"
  top: "res2b"
}
layer {
  name: "res2c_branch2a"
  type: "Convolution"
  bottom: "res2b"
  top: "res2c_branch2a"
  param {
    name: "res2c_branch2a_w"
    lr_mult: 1
  }
  convolution_param {
    num_output: 64
    bias_term: false
    pad: 0
    kernel_size: 1
    stride: 1
  }
}
layer {
  name: "bn2c_branch2a"
  type: "BatchNorm"
  bottom: "res2c_branch2a"
  top: "res2c_branch2a"
  param {
    name: "bn2c_branch2a_mean"
    lr_mult: 0
    decay_mult: 0
  }
  param {
    name: "bn2c_branch2a_variance"
    lr_mult: 0
    decay_mult: 0
  }
  param {
    name: "bn2c_branch2a_scale_factor"
    lr_mult: 0
    decay_mult: 0
  }
  batch_norm_param {
    use_global_stats: false
  }
}
layer {
  name: "scale2c_branch2a"
  type: "Scale"
  bottom: "res2c_branch2a"
  top: "res2c_branch2a"
  param {
    name: "scale2c_branch2a_alpha"
  }
  param {
    name: "scale2c_branch2a_beta"
  }
  scale_param {
    bias_term: true
  }
}
layer {
  name: "res2c_branch2a_relu"
  type: "ReLU"
  bottom: "res2c_branch2a"
  top: "res2c_branch2a"
}
layer {
  name: "res2c_branch2b"
  type: "Convolution"
  bottom: "res2c_branch2a"
  top: "res2c_branch2b"
  param {
    name: "res2c_branch2b_w"
    lr_mult: 1
  }
  convolution_param {
    num_output: 64
    bias_term: false
    pad: 1
    kernel_size: 3
    stride: 1
  }
}
layer {
  name: "bn2c_branch2b"
  type: "BatchNorm"
  bottom: "res2c_branch2b"
  top: "res2c_branch2b"
  param {
    name: "bn2c_branch2b_mean"
    lr_mult: 0
    decay_mult: 0
  }
  param {
    name: "bn2c_branch2b_variance"
    lr_mult: 0
    decay_mult: 0
  }
  param {
    name: "bn2c_branch2b_scale_factor"
    lr_mult: 0
    decay_mult: 0
  }
  batch_norm_param {
    use_global_stats: false
  }
}
layer {
  name: "scale2c_branch2b"
  type: "Scale"
  bottom: "res2c_branch2b"
  top: "res2c_branch2b"
  param {
    name: "scale2c_branch2b_alpha"
  }
  param {
    name: "scale2c_branch2b_beta"
  }
  scale_param {
    bias_term: true
  }
}
layer {
  name: "res2c_branch2b_relu"
  type: "ReLU"
  bottom: "res2c_branch2b"
  top: "res2c_branch2b"
}
layer {
  name: "res2c_branch2c"
  type: "Convolution"
  bottom: "res2c_branch2b"
  top: "res2c_branch2c"
  param {
    name: "res2c_branch2c_w"
    lr_mult: 1
  }
  convolution_param {
    num_output: 256
    bias_term: false
    pad: 0
    kernel_size: 1
    stride: 1
  }
}
layer {
  name: "bn2c_branch2c"
  type: "BatchNorm"
  bottom: "res2c_branch2c"
  top: "res2c_branch2c"
  param {
    name: "bn2c_branch2c_mean"
    lr_mult: 0
    decay_mult: 0
  }
  param {
    name: "bn2c_branch2c_variance"
    lr_mult: 0
    decay_mult: 0
  }
  param {
    name: "bn2c_branch2c_scale_factor"
    lr_mult: 0
    decay_mult: 0
  }
  batch_norm_param {
    use_global_stats: false
  }
}
layer {
  name: "scale2c_branch2c"
  type: "Scale"
  bottom: "res2c_branch2c"
  top: "res2c_branch2c"
  param {
    name: "scale2c_branch2c_alpha"
  }
  param {
    name: "scale2c_branch2c_beta"
  }
  scale_param {
    bias_term: true
  }
}
layer {
  name: "res2c"
  type: "Eltwise"
  bottom: "res2b"
  bottom: "res2c_branch2c"
  top: "res2c"
}
layer {
  name: "res2c_relu"
  type: "ReLU"
  bottom: "res2c"
  top: "res2c"
}
layer {
  name: "res3a_branch1"
  type: "Convolution"
  bottom: "res2c"
  top: "res3a_branch1"
  param {
    name: "res3a_branch1_w"
    lr_mult: 1
  }
  convolution_param {
    num_output: 512
    bias_term: false
    pad: 0
    kernel_size: 1
    stride: 2
  }
}
layer {
  name: "bn3a_branch1"
  type: "BatchNorm"
  bottom: "res3a_branch1"
  top: "res3a_branch1"
  param {
    name: "bn3a_branch1_mean"
    lr_mult: 0
    decay_mult: 0
  }
  param {
    name: "bn3a_branch1_variance"
    lr_mult: 0
    decay_mult: 0
  }
  param {
    name: "bn3a_branch1_scale_factor"
    lr_mult: 0
    decay_mult: 0
  }
  batch_norm_param {
    use_global_stats: false
  }
}
layer {
  name: "scale3a_branch1"
  type: "Scale"
  bottom: "res3a_branch1"
  top: "res3a_branch1"
  param {
    name: "scale3a_branch1_alpha"
  }
  param {
    name: "scale3a_branch1_beta"
  }
  scale_param {
    bias_term: true
  }
}
layer {
  name: "res3a_branch2a"
  type: "Convolution"
  bottom: "res2c"
  top: "res3a_branch2a"
  param {
    name: "res3a_branch2a_w"
    lr_mult: 1
  }
  convolution_param {
    num_output: 128
    bias_term: false
    pad: 0
    kernel_size: 1
    stride: 2
  }
}
layer {
  name: "bn3a_branch2a"
  type: "BatchNorm"
  bottom: "res3a_branch2a"
  top: "res3a_branch2a"
  param {
    name: "bn3a_branch2a_mean"
    lr_mult: 0
    decay_mult: 0
  }
  param {
    name: "bn3a_branch2a_variance"
    lr_mult: 0
    decay_mult: 0
  }
  param {
    name: "bn3a_branch2a_scale_factor"
    lr_mult: 0
    decay_mult: 0
  }
  batch_norm_param {
    use_global_stats: false
  }
}
layer {
  name: "scale3a_branch2a"
  type: "Scale"
  bottom: "res3a_branch2a"
  top: "res3a_branch2a"
  param {
    name: "scale3a_branch2a_alpha"
  }
  param {
    name: "scale3a_branch2a_beta"
  }
  scale_param {
    bias_term: true
  }
}
layer {
  name: "res3a_branch2a_relu"
  type: "ReLU"
  bottom: "res3a_branch2a"
  top: "res3a_branch2a"
}
layer {
  name: "res3a_branch2b"
  type: "Convolution"
  bottom: "res3a_branch2a"
  top: "res3a_branch2b"
  param {
    name: "res3a_branch2b_w"
    lr_mult: 1
  }
  convolution_param {
    num_output: 128
    bias_term: false
    pad: 1
    kernel_size: 3
    stride: 1
  }
}
layer {
  name: "bn3a_branch2b"
  type: "BatchNorm"
  bottom: "res3a_branch2b"
  top: "res3a_branch2b"
  param {
    name: "bn3a_branch2b_mean"
    lr_mult: 0
    decay_mult: 0
  }
  param {
    name: "bn3a_branch2b_variance"
    lr_mult: 0
    decay_mult: 0
  }
  param {
    name: "bn3a_branch2b_scale_factor"
    lr_mult: 0
    decay_mult: 0
  }
  batch_norm_param {
    use_global_stats: false
  }
}
layer {
  name: "scale3a_branch2b"
  type: "Scale"
  bottom: "res3a_branch2b"
  top: "res3a_branch2b"
  param {
    name: "scale3a_branch2b_alpha"
  }
  param {
    name: "scale3a_branch2b_beta"
  }
  scale_param {
    bias_term: true
  }
}
layer {
  name: "res3a_branch2b_relu"
  type: "ReLU"
  bottom: "res3a_branch2b"
  top: "res3a_branch2b"
}
layer {
  name: "res3a_branch2c"
  type: "Convolution"
  bottom: "res3a_branch2b"
  top: "res3a_branch2c"
  param {
    name: "res3a_branch2c_w"
    lr_mult: 1
  }
  convolution_param {
    num_output: 512
    bias_term: false
    pad: 0
    kernel_size: 1
    stride: 1
  }
}
layer {
  name: "bn3a_branch2c"
  type: "BatchNorm"
  bottom: "res3a_branch2c"
  top: "res3a_branch2c"
  param {
    name: "bn3a_branch2c_mean"
    lr_mult: 0
    decay_mult: 0
  }
  param {
    name: "bn3a_branch2c_variance"
    lr_mult: 0
    decay_mult: 0
  }
  param {
    name: "bn3a_branch2c_scale_factor"
    lr_mult: 0
    decay_mult: 0
  }
  batch_norm_param {
    use_global_stats: false
  }
}
layer {
  name: "scale3a_branch2c"
  type: "Scale"
  bottom: "res3a_branch2c"
  top: "res3a_branch2c"
  param {
    name: "scale3a_branch2c_alpha"
  }
  param {
    name: "scale3a_branch2c_beta"
  }
  scale_param {
    bias_term: true
  }
}
layer {
  name: "res3a"
  type: "Eltwise"
  bottom: "res3a_branch1"
  bottom: "res3a_branch2c"
  top: "res3a"
}
layer {
  name: "res3a_relu"
  type: "ReLU"
  bottom: "res3a"
  top: "res3a"
}
layer {
  name: "res3b_branch2a"
  type: "Convolution"
  bottom: "res3a"
  top: "res3b_branch2a"
  param {
    name: "res3b_branch2a_w"
    lr_mult: 1
  }
  convolution_param {
    num_output: 128
    bias_term: false
    pad: 0
    kernel_size: 1
    stride: 1
  }
}
layer {
  name: "bn3b_branch2a"
  type: "BatchNorm"
  bottom: "res3b_branch2a"
  top: "res3b_branch2a"
  param {
    name: "bn3b_branch2a_mean"
    lr_mult: 0
    decay_mult: 0
  }
  param {
    name: "bn3b_branch2a_variance"
    lr_mult: 0
    decay_mult: 0
  }
  param {
    name: "bn3b_branch2a_scale_factor"
    lr_mult: 0
    decay_mult: 0
  }
  batch_norm_param {
    use_global_stats: false
  }
}
layer {
  name: "scale3b_branch2a"
  type: "Scale"
  bottom: "res3b_branch2a"
  top: "res3b_branch2a"
  param {
    name: "scale3b_branch2a_alpha"
  }
  param {
    name: "scale3b_branch2a_beta"
  }
  scale_param {
    bias_term: true
  }
}
layer {
  name: "res3b_branch2a_relu"
  type: "ReLU"
  bottom: "res3b_branch2a"
  top: "res3b_branch2a"
}
layer {
  name: "res3b_branch2b"
  type: "Convolution"
  bottom: "res3b_branch2a"
  top: "res3b_branch2b"
  param {
    name: "res3b_branch2b_w"
    lr_mult: 1
  }
  convolution_param {
    num_output: 128
    bias_term: false
    pad: 1
    kernel_size: 3
    stride: 1
  }
}
layer {
  name: "bn3b_branch2b"
  type: "BatchNorm"
  bottom: "res3b_branch2b"
  top: "res3b_branch2b"
  param {
    name: "bn3b_branch2b_mean"
    lr_mult: 0
    decay_mult: 0
  }
  param {
    name: "bn3b_branch2b_variance"
    lr_mult: 0
    decay_mult: 0
  }
  param {
    name: "bn3b_branch2b_scale_factor"
    lr_mult: 0
    decay_mult: 0
  }
  batch_norm_param {
    use_global_stats: false
  }
}
layer {
  name: "scale3b_branch2b"
  type: "Scale"
  bottom: "res3b_branch2b"
  top: "res3b_branch2b"
  param {
    name: "scale3b_branch2b_alpha"
  }
  param {
    name: "scale3b_branch2b_beta"
  }
  scale_param {
    bias_term: true
  }
}
layer {
  name: "res3b_branch2b_relu"
  type: "ReLU"
  bottom: "res3b_branch2b"
  top: "res3b_branch2b"
}
layer {
  name: "res3b_branch2c"
  type: "Convolution"
  bottom: "res3b_branch2b"
  top: "res3b_branch2c"
  param {
    name: "res3b_branch2c_w"
    lr_mult: 1
  }
  convolution_param {
    num_output: 512
    bias_term: false
    pad: 0
    kernel_size: 1
    stride: 1
  }
}
layer {
  name: "bn3b_branch2c"
  type: "BatchNorm"
  bottom: "res3b_branch2c"
  top: "res3b_branch2c"
  param {
    name: "bn3b_branch2c_mean"
    lr_mult: 0
    decay_mult: 0
  }
  param {
    name: "bn3b_branch2c_variance"
    lr_mult: 0
    decay_mult: 0
  }
  param {
    name: "bn3b_branch2c_scale_factor"
    lr_mult: 0
    decay_mult: 0
  }
  batch_norm_param {
    use_global_stats: false
  }
}
layer {
  name: "scale3b_branch2c"
  type: "Scale"
  bottom: "res3b_branch2c"
  top: "res3b_branch2c"
  param {
    name: "scale3b_branch2c_alpha"
  }
  param {
    name: "scale3b_branch2c_beta"
  }
  scale_param {
    bias_term: true
  }
}
layer {
  name: "res3b"
  type: "Eltwise"
  bottom: "res3a"
  bottom: "res3b_branch2c"
  top: "res3b"
}
layer {
  name: "res3b_relu"
  type: "ReLU"
  bottom: "res3b"
  top: "res3b"
}
layer {
  name: "res3c_branch2a"
  type: "Convolution"
  bottom: "res3b"
  top: "res3c_branch2a"
  param {
    name: "res3c_branch2a_w"
    lr_mult: 1
  }
  convolution_param {
    num_output: 128
    bias_term: false
    pad: 0
    kernel_size: 1
    stride: 1
  }
}
layer {
  name: "bn3c_branch2a"
  type: "BatchNorm"
  bottom: "res3c_branch2a"
  top: "res3c_branch2a"
  param {
    name: "bn3c_branch2a_mean"
    lr_mult: 0
    decay_mult: 0
  }
  param {
    name: "bn3c_branch2a_variance"
    lr_mult: 0
    decay_mult: 0
  }
  param {
    name: "bn3c_branch2a_scale_factor"
    lr_mult: 0
    decay_mult: 0
  }
  batch_norm_param {
    use_global_stats: false
  }
}
layer {
  name: "scale3c_branch2a"
  type: "Scale"
  bottom: "res3c_branch2a"
  top: "res3c_branch2a"
  param {
    name: "scale3c_branch2a_alpha"
  }
  param {
    name: "scale3c_branch2a_beta"
  }
  scale_param {
    bias_term: true
  }
}
layer {
  name: "res3c_branch2a_relu"
  type: "ReLU"
  bottom: "res3c_branch2a"
  top: "res3c_branch2a"
}
layer {
  name: "res3c_branch2b"
  type: "Convolution"
  bottom: "res3c_branch2a"
  top: "res3c_branch2b"
  param {
    name: "res3c_branch2b_w"
    lr_mult: 1
  }
  convolution_param {
    num_output: 128
    bias_term: false
    pad: 1
    kernel_size: 3
    stride: 1
  }
}
layer {
  name: "bn3c_branch2b"
  type: "BatchNorm"
  bottom: "res3c_branch2b"
  top: "res3c_branch2b"
  param {
    name: "bn3c_branch2b_mean"
    lr_mult: 0
    decay_mult: 0
  }
  param {
    name: "bn3c_branch2b_variance"
    lr_mult: 0
    decay_mult: 0
  }
  param {
    name: "bn3c_branch2b_scale_factor"
    lr_mult: 0
    decay_mult: 0
  }
  batch_norm_param {
    use_global_stats: false
  }
}
layer {
  name: "scale3c_branch2b"
  type: "Scale"
  bottom: "res3c_branch2b"
  top: "res3c_branch2b"
  param {
    name: "scale3c_branch2b_alpha"
  }
  param {
    name: "scale3c_branch2b_beta"
  }
  scale_param {
    bias_term: true
  }
}
layer {
  name: "res3c_branch2b_relu"
  type: "ReLU"
  bottom: "res3c_branch2b"
  top: "res3c_branch2b"
}
layer {
  name: "res3c_branch2c"
  type: "Convolution"
  bottom: "res3c_branch2b"
  top: "res3c_branch2c"
  param {
    name: "res3c_branch2c_w"
    lr_mult: 1
  }
  convolution_param {
    num_output: 512
    bias_term: false
    pad: 0
    kernel_size: 1
    stride: 1
  }
}
layer {
  name: "bn3c_branch2c"
  type: "BatchNorm"
  bottom: "res3c_branch2c"
  top: "res3c_branch2c"
  param {
    name: "bn3c_branch2c_mean"
    lr_mult: 0
    decay_mult: 0
  }
  param {
    name: "bn3c_branch2c_variance"
    lr_mult: 0
    decay_mult: 0
  }
  param {
    name: "bn3c_branch2c_scale_factor"
    lr_mult: 0
    decay_mult: 0
  }
  batch_norm_param {
    use_global_stats: false
  }
}
layer {
  name: "scale3c_branch2c"
  type: "Scale"
  bottom: "res3c_branch2c"
  top: "res3c_branch2c"
  param {
    name: "scale3c_branch2c_alpha"
  }
  param {
    name: "scale3c_branch2c_beta"
  }
  scale_param {
    bias_term: true
  }
}
layer {
  name: "res3c"
  type: "Eltwise"
  bottom: "res3b"
  bottom: "res3c_branch2c"
  top: "res3c"
}
layer {
  name: "res3c_relu"
  type: "ReLU"
  bottom: "res3c"
  top: "res3c"
}
layer {
  name: "res3d_branch2a"
  type: "Convolution"
  bottom: "res3c"
  top: "res3d_branch2a"
  param {
    name: "res3d_branch2a_w"
    lr_mult: 1
  }
  convolution_param {
    num_output: 128
    bias_term: false
    pad: 0
    kernel_size: 1
    stride: 1
  }
}
layer {
  name: "bn3d_branch2a"
  type: "BatchNorm"
  bottom: "res3d_branch2a"
  top: "res3d_branch2a"
  param {
    name: "bn3d_branch2a_mean"
    lr_mult: 0
    decay_mult: 0
  }
  param {
    name: "bn3d_branch2a_variance"
    lr_mult: 0
    decay_mult: 0
  }
  param {
    name: "bn3d_branch2a_scale_factor"
    lr_mult: 0
    decay_mult: 0
  }
  batch_norm_param {
    use_global_stats: false
  }
}
layer {
  name: "scale3d_branch2a"
  type: "Scale"
  bottom: "res3d_branch2a"
  top: "res3d_branch2a"
  param {
    name: "scale3d_branch2a_alpha"
  }
  param {
    name: "scale3d_branch2a_beta"
  }
  scale_param {
    bias_term: true
  }
}
layer {
  name: "res3d_branch2a_relu"
  type: "ReLU"
  bottom: "res3d_branch2a"
  top: "res3d_branch2a"
}
layer {
  name: "res3d_branch2b"
  type: "Convolution"
  bottom: "res3d_branch2a"
  top: "res3d_branch2b"
  param {
    name: "res3d_branch2b_w"
    lr_mult: 1
  }
  convolution_param {
    num_output: 128
    bias_term: false
    pad: 1
    kernel_size: 3
    stride: 1
  }
}
layer {
  name: "bn3d_branch2b"
  type: "BatchNorm"
  bottom: "res3d_branch2b"
  top: "res3d_branch2b"
  param {
    name: "bn3d_branch2b_mean"
    lr_mult: 0
    decay_mult: 0
  }
  param {
    name: "bn3d_branch2b_variance"
    lr_mult: 0
    decay_mult: 0
  }
  param {
    name: "bn3d_branch2b_scale_factor"
    lr_mult: 0
    decay_mult: 0
  }
  batch_norm_param {
    use_global_stats: false
  }
}
layer {
  name: "scale3d_branch2b"
  type: "Scale"
  bottom: "res3d_branch2b"
  top: "res3d_branch2b"
  param {
    name: "scale3d_branch2b_alpha"
  }
  param {
    name: "scale3d_branch2b_beta"
  }
  scale_param {
    bias_term: true
  }
}
layer {
  name: "res3d_branch2b_relu"
  type: "ReLU"
  bottom: "res3d_branch2b"
  top: "res3d_branch2b"
}
layer {
  name: "res3d_branch2c"
  type: "Convolution"
  bottom: "res3d_branch2b"
  top: "res3d_branch2c"
  param {
    name: "res3d_branch2c_w"
    lr_mult: 1
  }
  convolution_param {
    num_output: 512
    bias_term: false
    pad: 0
    kernel_size: 1
    stride: 1
  }
}
layer {
  name: "bn3d_branch2c"
  type: "BatchNorm"
  bottom: "res3d_branch2c"
  top: "res3d_branch2c"
  param {
    name: "bn3d_branch2c_mean"
    lr_mult: 0
    decay_mult: 0
  }
  param {
    name: "bn3d_branch2c_variance"
    lr_mult: 0
    decay_mult: 0
  }
  param {
    name: "bn3d_branch2c_scale_factor"
    lr_mult: 0
    decay_mult: 0
  }
  batch_norm_param {
    use_global_stats: false
  }
}
layer {
  name: "scale3d_branch2c"
  type: "Scale"
  bottom: "res3d_branch2c"
  top: "res3d_branch2c"
  param {
    name: "scale3d_branch2c_alpha"
  }
  param {
    name: "scale3d_branch2c_beta"
  }
  scale_param {
    bias_term: true
  }
}
layer {
  name: "res3d"
  type: "Eltwise"
  bottom: "res3c"
  bottom: "res3d_branch2c"
  top: "res3d"
}
layer {
  name: "res3d_relu"
  type: "ReLU"
  bottom: "res3d"
  top: "res3d"
}
layer {
  name: "res4a_branch1"
  type: "Convolution"
  bottom: "res3d"
  top: "res4a_branch1"
  param {
    name: "res4a_branch1_w"
    lr_mult: 1
  }
  convolution_param {
    num_output: 1024
    bias_term: false
    pad: 0
    kernel_size: 1
    stride: 2
  }
}
layer {
  name: "bn4a_branch1"
  type: "BatchNorm"
  bottom: "res4a_branch1"
  top: "res4a_branch1"
  param {
    name: "bn4a_branch1_mean"
    lr_mult: 0
    decay_mult: 0
  }
  param {
    name: "bn4a_branch1_variance"
    lr_mult: 0
    decay_mult: 0
  }
  param {
    name: "bn4a_branch1_scale_factor"
    lr_mult: 0
    decay_mult: 0
  }
  batch_norm_param {
    use_global_stats: false
  }
}
layer {
  name: "scale4a_branch1"
  type: "Scale"
  bottom: "res4a_branch1"
  top: "res4a_branch1"
  param {
    name: "scale4a_branch1_alpha"
  }
  param {
    name: "scale4a_branch1_beta"
  }
  scale_param {
    bias_term: true
  }
}
layer {
  name: "res4a_branch2a"
  type: "Convolution"
  bottom: "res3d"
  top: "res4a_branch2a"
  param {
    name: "res4a_branch2a_w"
    lr_mult: 1
  }
  convolution_param {
    num_output: 256
    bias_term: false
    pad: 0
    kernel_size: 1
    stride: 2
  }
}
layer {
  name: "bn4a_branch2a"
  type: "BatchNorm"
  bottom: "res4a_branch2a"
  top: "res4a_branch2a"
  param {
    name: "bn4a_branch2a_mean"
    lr_mult: 0
    decay_mult: 0
  }
  param {
    name: "bn4a_branch2a_variance"
    lr_mult: 0
    decay_mult: 0
  }
  param {
    name: "bn4a_branch2a_scale_factor"
    lr_mult: 0
    decay_mult: 0
  }
  batch_norm_param {
    use_global_stats: false
  }
}
layer {
  name: "scale4a_branch2a"
  type: "Scale"
  bottom: "res4a_branch2a"
  top: "res4a_branch2a"
  param {
    name: "scale4a_branch2a_alpha"
  }
  param {
    name: "scale4a_branch2a_beta"
  }
  scale_param {
    bias_term: true
  }
}
layer {
  name: "res4a_branch2a_relu"
  type: "ReLU"
  bottom: "res4a_branch2a"
  top: "res4a_branch2a"
}
layer {
  name: "res4a_branch2b"
  type: "Convolution"
  bottom: "res4a_branch2a"
  top: "res4a_branch2b"
  param {
    name: "res4a_branch2b_w"
    lr_mult: 1
  }
  convolution_param {
    num_output: 256
    bias_term: false
    pad: 1
    kernel_size: 3
    stride: 1
  }
}
layer {
  name: "bn4a_branch2b"
  type: "BatchNorm"
  bottom: "res4a_branch2b"
  top: "res4a_branch2b"
  param {
    name: "bn4a_branch2b_mean"
    lr_mult: 0
    decay_mult: 0
  }
  param {
    name: "bn4a_branch2b_variance"
    lr_mult: 0
    decay_mult: 0
  }
  param {
    name: "bn4a_branch2b_scale_factor"
    lr_mult: 0
    decay_mult: 0
  }
  batch_norm_param {
    use_global_stats: false
  }
}
layer {
  name: "scale4a_branch2b"
  type: "Scale"
  bottom: "res4a_branch2b"
  top: "res4a_branch2b"
  param {
    name: "scale4a_branch2b_alpha"
  }
  param {
    name: "scale4a_branch2b_beta"
  }
  scale_param {
    bias_term: true
  }
}
layer {
  name: "res4a_branch2b_relu"
  type: "ReLU"
  bottom: "res4a_branch2b"
  top: "res4a_branch2b"
}
layer {
  name: "res4a_branch2c"
  type: "Convolution"
  bottom: "res4a_branch2b"
  top: "res4a_branch2c"
  param {
    name: "res4a_branch2c_w"
    lr_mult: 1
  }
  convolution_param {
    num_output: 1024
    bias_term: false
    pad: 0
    kernel_size: 1
    stride: 1
  }
}
layer {
  name: "bn4a_branch2c"
  type: "BatchNorm"
  bottom: "res4a_branch2c"
  top: "res4a_branch2c"
  param {
    name: "bn4a_branch2c_mean"
    lr_mult: 0
    decay_mult: 0
  }
  param {
    name: "bn4a_branch2c_variance"
    lr_mult: 0
    decay_mult: 0
  }
  param {
    name: "bn4a_branch2c_scale_factor"
    lr_mult: 0
    decay_mult: 0
  }
  batch_norm_param {
    use_global_stats: false
  }
}
layer {
  name: "scale4a_branch2c"
  type: "Scale"
  bottom: "res4a_branch2c"
  top: "res4a_branch2c"
  param {
    name: "scale4a_branch2c_alpha"
  }
  param {
    name: "scale4a_branch2c_beta"
  }
  scale_param {
    bias_term: true
  }
}
layer {
  name: "res4a"
  type: "Eltwise"
  bottom: "res4a_branch1"
  bottom: "res4a_branch2c"
  top: "res4a"
}
layer {
  name: "res4a_relu"
  type: "ReLU"
  bottom: "res4a"
  top: "res4a"
}
layer {
  name: "res4b_branch2a"
  type: "Convolution"
  bottom: "res4a"
  top: "res4b_branch2a"
  param {
    name: "res4b_branch2a_w"
    lr_mult: 1
  }
  convolution_param {
    num_output: 256
    bias_term: false
    pad: 0
    kernel_size: 1
    stride: 1
  }
}
layer {
  name: "bn4b_branch2a"
  type: "BatchNorm"
  bottom: "res4b_branch2a"
  top: "res4b_branch2a"
  param {
    name: "bn4b_branch2a_mean"
    lr_mult: 0
    decay_mult: 0
  }
  param {
    name: "bn4b_branch2a_variance"
    lr_mult: 0
    decay_mult: 0
  }
  param {
    name: "bn4b_branch2a_scale_factor"
    lr_mult: 0
    decay_mult:
I0228 11:22:51.354758  9676 layer_factory.hpp:77] Creating layer data
I0228 11:22:51.725363  9677 upgrade_proto.cpp:77] Attempting to upgrade batch norm layers using deprecated params: /core1/data/home/shizhan/jiahuan/siamese_shelf/res50/models/res50_multigpu_new.prototxt
I0228 11:22:51.725476  9677 upgrade_proto.cpp:80] Successfully upgraded batch norm layers using deprecated params.
I0228 11:22:51.821804  9676 net.cpp:84] Creating Layer data
I0228 11:22:51.821849  9676 net.cpp:380] data -> pairs
I0228 11:22:51.823410  9676 net.cpp:122] Setting up data
I0228 11:22:51.823439  9676 net.cpp:129] Top shape: 8 6 224 224 (2408448)
I0228 11:22:51.823446  9676 net.cpp:137] Memory required for data: 9633792
I0228 11:22:51.823457  9676 layer_factory.hpp:77] Creating layer slice
I0228 11:22:51.823477  9676 net.cpp:84] Creating Layer slice
I0228 11:22:51.823483  9676 net.cpp:406] slice <- pairs
I0228 11:22:51.823499  9676 net.cpp:380] slice -> data
I0228 11:22:51.823514  9676 net.cpp:380] slice -> data_p
I0228 11:22:51.823587  9676 net.cpp:122] Setting up slice
I0228 11:22:51.823598  9676 net.cpp:129] Top shape: 8 3 224 224 (1204224)
I0228 11:22:51.823607  9676 net.cpp:129] Top shape: 8 3 224 224 (1204224)
I0228 11:22:51.823612  9676 net.cpp:137] Memory required for data: 19267584
I0228 11:22:51.823619  9676 layer_factory.hpp:77] Creating layer conv1
I0228 11:22:51.823635  9676 net.cpp:84] Creating Layer conv1
I0228 11:22:51.823642  9676 net.cpp:406] conv1 <- data
I0228 11:22:51.823653  9676 net.cpp:380] conv1 -> conv1
I0228 11:22:52.216982  9676 net.cpp:122] Setting up conv1
I0228 11:22:52.217015  9676 net.cpp:129] Top shape: 8 64 112 112 (6422528)
I0228 11:22:52.217022  9676 net.cpp:137] Memory required for data: 44957696
I0228 11:22:52.217039  9676 layer_factory.hpp:77] Creating layer bn_conv1
I0228 11:22:52.217051  9676 net.cpp:84] Creating Layer bn_conv1
I0228 11:22:52.217056  9676 net.cpp:406] bn_conv1 <- conv1
I0228 11:22:52.217062  9676 net.cpp:367] bn_conv1 -> conv1 (in-place)
I0228 11:22:52.217226  9676 net.cpp:122] Setting up bn_conv1
I0228 11:22:52.217233  9676 net.cpp:129] Top shape: 8 64 112 112 (6422528)
I0228 11:22:52.217237  9676 net.cpp:137] Memory required for data: 70647808
I0228 11:22:52.217248  9676 layer_factory.hpp:77] Creating layer scale_conv1
I0228 11:22:52.217262  9676 net.cpp:84] Creating Layer scale_conv1
I0228 11:22:52.217265  9676 net.cpp:406] scale_conv1 <- conv1
I0228 11:22:52.217272  9676 net.cpp:367] scale_conv1 -> conv1 (in-place)
I0228 11:22:52.217308  9676 layer_factory.hpp:77] Creating layer scale_conv1
I0228 11:22:52.217407  9676 net.cpp:122] Setting up scale_conv1
I0228 11:22:52.217416  9676 net.cpp:129] Top shape: 8 64 112 112 (6422528)
I0228 11:22:52.217418  9676 net.cpp:137] Memory required for data: 96337920
I0228 11:22:52.217424  9676 layer_factory.hpp:77] Creating layer conv1_relu
I0228 11:22:52.217432  9676 net.cpp:84] Creating Layer conv1_relu
I0228 11:22:52.217435  9676 net.cpp:406] conv1_relu <- conv1
I0228 11:22:52.217439  9676 net.cpp:367] conv1_relu -> conv1 (in-place)
I0228 11:22:52.217589  9676 net.cpp:122] Setting up conv1_relu
I0228 11:22:52.217598  9676 net.cpp:129] Top shape: 8 64 112 112 (6422528)
I0228 11:22:52.217602  9676 net.cpp:137] Memory required for data: 122028032
I0228 11:22:52.217605  9676 layer_factory.hpp:77] Creating layer pool1
I0228 11:22:52.217612  9676 net.cpp:84] Creating Layer pool1
I0228 11:22:52.217617  9676 net.cpp:406] pool1 <- conv1
I0228 11:22:52.217622  9676 net.cpp:380] pool1 -> pool1
I0228 11:22:52.217655  9676 net.cpp:122] Setting up pool1
I0228 11:22:52.217663  9676 net.cpp:129] Top shape: 8 64 56 56 (1605632)
I0228 11:22:52.217665  9676 net.cpp:137] Memory required for data: 128450560
I0228 11:22:52.217670  9676 layer_factory.hpp:77] Creating layer pool1_pool1_0_split
I0228 11:22:52.217679  9676 net.cpp:84] Creating Layer pool1_pool1_0_split
I0228 11:22:52.217684  9676 net.cpp:406] pool1_pool1_0_split <- pool1
I0228 11:22:52.217687  9676 net.cpp:380] pool1_pool1_0_split -> pool1_pool1_0_split_0
I0228 11:22:52.217695  9676 net.cpp:380] pool1_pool1_0_split -> pool1_pool1_0_split_1
I0228 11:22:52.217720  9676 net.cpp:122] Setting up pool1_pool1_0_split
I0228 11:22:52.217726  9676 net.cpp:129] Top shape: 8 64 56 56 (1605632)
I0228 11:22:52.217731  9676 net.cpp:129] Top shape: 8 64 56 56 (1605632)
I0228 11:22:52.217736  9676 net.cpp:137] Memory required for data: 141295616
I0228 11:22:52.217738  9676 layer_factory.hpp:77] Creating layer res2a_branch1
I0228 11:22:52.217747  9676 net.cpp:84] Creating Layer res2a_branch1
I0228 11:22:52.217751  9676 net.cpp:406] res2a_branch1 <- pool1_pool1_0_split_0
I0228 11:22:52.217758  9676 net.cpp:380] res2a_branch1 -> res2a_branch1
I0228 11:22:52.218622  9676 net.cpp:122] Setting up res2a_branch1
I0228 11:22:52.218636  9676 net.cpp:129] Top shape: 8 256 56 56 (6422528)
I0228 11:22:52.218641  9676 net.cpp:137] Memory required for data: 166985728
I0228 11:22:52.218647  9676 layer_factory.hpp:77] Creating layer bn2a_branch1
I0228 11:22:52.218653  9676 net.cpp:84] Creating Layer bn2a_branch1
I0228 11:22:52.218657  9676 net.cpp:406] bn2a_branch1 <- res2a_branch1
I0228 11:22:52.218663  9676 net.cpp:367] bn2a_branch1 -> res2a_branch1 (in-place)
I0228 11:22:52.219610  9676 net.cpp:122] Setting up bn2a_branch1
I0228 11:22:52.219624  9676 net.cpp:129] Top shape: 8 256 56 56 (6422528)
I0228 11:22:52.219629  9676 net.cpp:137] Memory required for data: 192675840
I0228 11:22:52.219640  9676 layer_factory.hpp:77] Creating layer scale2a_branch1
I0228 11:22:52.219648  9676 net.cpp:84] Creating Layer scale2a_branch1
I0228 11:22:52.219652  9676 net.cpp:406] scale2a_branch1 <- res2a_branch1
I0228 11:22:52.219660  9676 net.cpp:367] scale2a_branch1 -> res2a_branch1 (in-place)
I0228 11:22:52.219696  9676 layer_factory.hpp:77] Creating layer scale2a_branch1
I0228 11:22:52.219780  9676 net.cpp:122] Setting up scale2a_branch1
I0228 11:22:52.219789  9676 net.cpp:129] Top shape: 8 256 56 56 (6422528)
I0228 11:22:52.219791  9676 net.cpp:137] Memory required for data: 218365952
I0228 11:22:52.219797  9676 layer_factory.hpp:77] Creating layer res2a_branch2a
I0228 11:22:52.219805  9676 net.cpp:84] Creating Layer res2a_branch2a
I0228 11:22:52.219810  9676 net.cpp:406] res2a_branch2a <- pool1_pool1_0_split_1
I0228 11:22:52.219815  9676 net.cpp:380] res2a_branch2a -> res2a_branch2a
I0228 11:22:52.220628  9676 net.cpp:122] Setting up res2a_branch2a
I0228 11:22:52.220643  9676 net.cpp:129] Top shape: 8 64 56 56 (1605632)
I0228 11:22:52.220646  9676 net.cpp:137] Memory required for data: 224788480
I0228 11:22:52.220652  9676 layer_factory.hpp:77] Creating layer bn2a_branch2a
I0228 11:22:52.220659  9676 net.cpp:84] Creating Layer bn2a_branch2a
I0228 11:22:52.220664  9676 net.cpp:406] bn2a_branch2a <- res2a_branch2a
I0228 11:22:52.220671  9676 net.cpp:367] bn2a_branch2a -> res2a_branch2a (in-place)
I0228 11:22:52.220814  9676 net.cpp:122] Setting up bn2a_branch2a
I0228 11:22:52.220821  9676 net.cpp:129] Top shape: 8 64 56 56 (1605632)
I0228 11:22:52.220824  9676 net.cpp:137] Memory required for data: 231211008
I0228 11:22:52.220837  9676 layer_factory.hpp:77] Creating layer scale2a_branch2a
I0228 11:22:52.220844  9676 net.cpp:84] Creating Layer scale2a_branch2a
I0228 11:22:52.220847  9676 net.cpp:406] scale2a_branch2a <- res2a_branch2a
I0228 11:22:52.220852  9676 net.cpp:367] scale2a_branch2a -> res2a_branch2a (in-place)
I0228 11:22:52.220885  9676 layer_factory.hpp:77] Creating layer scale2a_branch2a
I0228 11:22:52.220970  9676 net.cpp:122] Setting up scale2a_branch2a
I0228 11:22:52.220978  9676 net.cpp:129] Top shape: 8 64 56 56 (1605632)
I0228 11:22:52.220980  9676 net.cpp:137] Memory required for data: 237633536
I0228 11:22:52.220988  9676 layer_factory.hpp:77] Creating layer res2a_branch2a_relu
I0228 11:22:52.220993  9676 net.cpp:84] Creating Layer res2a_branch2a_relu
I0228 11:22:52.220996  9676 net.cpp:406] res2a_branch2a_relu <- res2a_branch2a
I0228 11:22:52.221002  9676 net.cpp:367] res2a_branch2a_relu -> res2a_branch2a (in-place)
I0228 11:22:52.221143  9676 net.cpp:122] Setting up res2a_branch2a_relu
I0228 11:22:52.221151  9676 net.cpp:129] Top shape: 8 64 56 56 (1605632)
I0228 11:22:52.221154  9676 net.cpp:137] Memory required for data: 244056064
I0228 11:22:52.221158  9676 layer_factory.hpp:77] Creating layer res2a_branch2b
I0228 11:22:52.221166  9676 net.cpp:84] Creating Layer res2a_branch2b
I0228 11:22:52.221170  9676 net.cpp:406] res2a_branch2b <- res2a_branch2a
I0228 11:22:52.221175  9676 net.cpp:380] res2a_branch2b -> res2a_branch2b
I0228 11:22:52.223040  9676 net.cpp:122] Setting up res2a_branch2b
I0228 11:22:52.223055  9676 net.cpp:129] Top shape: 8 64 56 56 (1605632)
I0228 11:22:52.223059  9676 net.cpp:137] Memory required for data: 250478592
I0228 11:22:52.223068  9676 layer_factory.hpp:77] Creating layer bn2a_branch2b
I0228 11:22:52.223078  9676 net.cpp:84] Creating Layer bn2a_branch2b
I0228 11:22:52.223083  9676 net.cpp:406] bn2a_branch2b <- res2a_branch2b
I0228 11:22:52.223088  9676 net.cpp:367] bn2a_branch2b -> res2a_branch2b (in-place)
I0228 11:22:52.223238  9676 net.cpp:122] Setting up bn2a_branch2b
I0228 11:22:52.223246  9676 net.cpp:129] Top shape: 8 64 56 56 (1605632)
I0228 11:22:52.223249  9676 net.cpp:137] Memory required for data: 256901120
I0228 11:22:52.223258  9676 layer_factory.hpp:77] Creating layer scale2a_branch2b
I0228 11:22:52.223263  9676 net.cpp:84] Creating Layer scale2a_branch2b
I0228 11:22:52.223268  9676 net.cpp:406] scale2a_branch2b <- res2a_branch2b
I0228 11:22:52.223273  9676 net.cpp:367] scale2a_branch2b -> res2a_branch2b (in-place)
I0228 11:22:52.223304  9676 layer_factory.hpp:77] Creating layer scale2a_branch2b
I0228 11:22:52.223393  9676 net.cpp:122] Setting up scale2a_branch2b
I0228 11:22:52.223399  9676 net.cpp:129] Top shape: 8 64 56 56 (1605632)
I0228 11:22:52.223407  9676 net.cpp:137] Memory required for data: 263323648
I0228 11:22:52.223414  9676 layer_factory.hpp:77] Creating layer res2a_branch2b_relu
I0228 11:22:52.223419  9676 net.cpp:84] Creating Layer res2a_branch2b_relu
I0228 11:22:52.223423  9676 net.cpp:406] res2a_branch2b_relu <- res2a_branch2b
I0228 11:22:52.223429  9676 net.cpp:367] res2a_branch2b_relu -> res2a_branch2b (in-place)
I0228 11:22:52.223577  9676 net.cpp:122] Setting up res2a_branch2b_relu
I0228 11:22:52.223584  9676 net.cpp:129] Top shape: 8 64 56 56 (1605632)
I0228 11:22:52.223588  9676 net.cpp:137] Memory required for data: 269746176
I0228 11:22:52.223592  9676 layer_factory.hpp:77] Creating layer res2a_branch2c
I0228 11:22:52.223599  9676 net.cpp:84] Creating Layer res2a_branch2c
I0228 11:22:52.223603  9676 net.cpp:406] res2a_branch2c <- res2a_branch2b
I0228 11:22:52.223609  9676 net.cpp:380] res2a_branch2c -> res2a_branch2c
I0228 11:22:52.224407  9676 net.cpp:122] Setting up res2a_branch2c
I0228 11:22:52.224421  9676 net.cpp:129] Top shape: 8 256 56 56 (6422528)
I0228 11:22:52.224426  9676 net.cpp:137] Memory required for data: 295436288
I0228 11:22:52.224434  9676 layer_factory.hpp:77] Creating layer bn2a_branch2c
I0228 11:22:52.224442  9676 net.cpp:84] Creating Layer bn2a_branch2c
I0228 11:22:52.224445  9676 net.cpp:406] bn2a_branch2c <- res2a_branch2c
I0228 11:22:52.224452  9676 net.cpp:367] bn2a_branch2c -> res2a_branch2c (in-place)
I0228 11:22:52.224593  9676 net.cpp:122] Setting up bn2a_branch2c
I0228 11:22:52.224601  9676 net.cpp:129] Top shape: 8 256 56 56 (6422528)
I0228 11:22:52.224604  9676 net.cpp:137] Memory required for data: 321126400
I0228 11:22:52.224611  9676 layer_factory.hpp:77] Creating layer scale2a_branch2c
I0228 11:22:52.224618  9676 net.cpp:84] Creating Layer scale2a_branch2c
I0228 11:22:52.224622  9676 net.cpp:406] scale2a_branch2c <- res2a_branch2c
I0228 11:22:52.224627  9676 net.cpp:367] scale2a_branch2c -> res2a_branch2c (in-place)
I0228 11:22:52.224658  9676 layer_factory.hpp:77] Creating layer scale2a_branch2c
I0228 11:22:52.224741  9676 net.cpp:122] Setting up scale2a_branch2c
I0228 11:22:52.224748  9676 net.cpp:129] Top shape: 8 256 56 56 (6422528)
I0228 11:22:52.224751  9676 net.cpp:137] Memory required for data: 346816512
I0228 11:22:52.224757  9676 layer_factory.hpp:77] Creating layer res2a
I0228 11:22:52.224767  9676 net.cpp:84] Creating Layer res2a
I0228 11:22:52.224771  9676 net.cpp:406] res2a <- res2a_branch1
I0228 11:22:52.224777  9676 net.cpp:406] res2a <- res2a_branch2c
I0228 11:22:52.224781  9676 net.cpp:380] res2a -> res2a
I0228 11:22:52.224802  9676 net.cpp:122] Setting up res2a
I0228 11:22:52.224808  9676 net.cpp:129] Top shape: 8 256 56 56 (6422528)
I0228 11:22:52.224812  9676 net.cpp:137] Memory required for data: 372506624
I0228 11:22:52.224815  9676 layer_factory.hpp:77] Creating layer res2a_relu
I0228 11:22:52.224822  9676 net.cpp:84] Creating Layer res2a_relu
I0228 11:22:52.224824  9676 net.cpp:406] res2a_relu <- res2a
I0228 11:22:52.224829  9676 net.cpp:367] res2a_relu -> res2a (in-place)
I0228 11:22:52.224970  9676 net.cpp:122] Setting up res2a_relu
I0228 11:22:52.224979  9676 net.cpp:129] Top shape: 8 256 56 56 (6422528)
I0228 11:22:52.224982  9676 net.cpp:137] Memory required for data: 398196736
I0228 11:22:52.224987  9676 layer_factory.hpp:77] Creating layer res2a_res2a_relu_0_split
I0228 11:22:52.224992  9676 net.cpp:84] Creating Layer res2a_res2a_relu_0_split
I0228 11:22:52.224995  9676 net.cpp:406] res2a_res2a_relu_0_split <- res2a
I0228 11:22:52.225003  9676 net.cpp:380] res2a_res2a_relu_0_split -> res2a_res2a_relu_0_split_0
I0228 11:22:52.225008  9676 net.cpp:380] res2a_res2a_relu_0_split -> res2a_res2a_relu_0_split_1
I0228 11:22:52.225039  9676 net.cpp:122] Setting up res2a_res2a_relu_0_split
I0228 11:22:52.225044  9676 net.cpp:129] Top shape: 8 256 56 56 (6422528)
I0228 11:22:52.225049  9676 net.cpp:129] Top shape: 8 256 56 56 (6422528)
I0228 11:22:52.225052  9676 net.cpp:137] Memory required for data: 449576960
I0228 11:22:52.225056  9676 layer_factory.hpp:77] Creating layer res2b_branch2a
I0228 11:22:52.225067  9676 net.cpp:84] Creating Layer res2b_branch2a
I0228 11:22:52.225071  9676 net.cpp:406] res2b_branch2a <- res2a_res2a_relu_0_split_0
I0228 11:22:52.225076  9676 net.cpp:380] res2b_branch2a -> res2b_branch2a
I0228 11:22:52.225875  9676 net.cpp:122] Setting up res2b_branch2a
I0228 11:22:52.225889  9676 net.cpp:129] Top shape: 8 64 56 56 (1605632)
I0228 11:22:52.225893  9676 net.cpp:137] Memory required for data: 455999488
I0228 11:22:52.225901  9676 layer_factory.hpp:77] Creating layer bn2b_branch2a
I0228 11:22:52.225908  9676 net.cpp:84] Creating Layer bn2b_branch2a
I0228 11:22:52.225914  9676 net.cpp:406] bn2b_branch2a <- res2b_branch2a
I0228 11:22:52.225919  9676 net.cpp:367] bn2b_branch2a -> res2b_branch2a (in-place)
I0228 11:22:52.226070  9676 net.cpp:122] Setting up bn2b_branch2a
I0228 11:22:52.226078  9676 net.cpp:129] Top shape: 8 64 56 56 (1605632)
I0228 11:22:52.226080  9676 net.cpp:137] Memory required for data: 462422016
I0228 11:22:52.226094  9676 layer_factory.hpp:77] Creating layer scale2b_branch2a
I0228 11:22:52.226101  9676 net.cpp:84] Creating Layer scale2b_branch2a
I0228 11:22:52.226128  9676 net.cpp:406] scale2b_branch2a <- res2b_branch2a
I0228 11:22:52.226135  9676 net.cpp:367] scale2b_branch2a -> res2b_branch2a (in-place)
I0228 11:22:52.226171  9676 layer_factory.hpp:77] Creating layer scale2b_branch2a
I0228 11:22:52.226266  9676 net.cpp:122] Setting up scale2b_branch2a
I0228 11:22:52.226274  9676 net.cpp:129] Top shape: 8 64 56 56 (1605632)
I0228 11:22:52.226277  9676 net.cpp:137] Memory required for data: 468844544
I0228 11:22:52.226284  9676 layer_factory.hpp:77] Creating layer res2b_branch2a_relu
I0228 11:22:52.226289  9676 net.cpp:84] Creating Layer res2b_branch2a_relu
I0228 11:22:52.226294  9676 net.cpp:406] res2b_branch2a_relu <- res2b_branch2a
I0228 11:22:52.226300  9676 net.cpp:367] res2b_branch2a_relu -> res2b_branch2a (in-place)
I0228 11:22:52.226464  9676 net.cpp:122] Setting up res2b_branch2a_relu
I0228 11:22:52.226472  9676 net.cpp:129] Top shape: 8 64 56 56 (1605632)
I0228 11:22:52.226476  9676 net.cpp:137] Memory required for data: 475267072
I0228 11:22:52.226481  9676 layer_factory.hpp:77] Creating layer res2b_branch2b
I0228 11:22:52.226488  9676 net.cpp:84] Creating Layer res2b_branch2b
I0228 11:22:52.226492  9676 net.cpp:406] res2b_branch2b <- res2b_branch2a
I0228 11:22:52.226498  9676 net.cpp:380] res2b_branch2b -> res2b_branch2b
I0228 11:22:52.227300  9676 net.cpp:122] Setting up res2b_branch2b
I0228 11:22:52.227314  9676 net.cpp:129] Top shape: 8 64 56 56 (1605632)
I0228 11:22:52.227318  9676 net.cpp:137] Memory required for data: 481689600
I0228 11:22:52.227324  9676 layer_factory.hpp:77] Creating layer bn2b_branch2b
I0228 11:22:52.227332  9676 net.cpp:84] Creating Layer bn2b_branch2b
I0228 11:22:52.227336  9676 net.cpp:406] bn2b_branch2b <- res2b_branch2b
I0228 11:22:52.227344  9676 net.cpp:367] bn2b_branch2b -> res2b_branch2b (in-place)
I0228 11:22:52.227495  9676 net.cpp:122] Setting up bn2b_branch2b
I0228 11:22:52.227504  9676 net.cpp:129] Top shape: 8 64 56 56 (1605632)
I0228 11:22:52.227506  9676 net.cpp:137] Memory required for data: 488112128
I0228 11:22:52.227514  9676 layer_factory.hpp:77] Creating layer scale2b_branch2b
I0228 11:22:52.227520  9676 net.cpp:84] Creating Layer scale2b_branch2b
I0228 11:22:52.227524  9676 net.cpp:406] scale2b_branch2b <- res2b_branch2b
I0228 11:22:52.227530  9676 net.cpp:367] scale2b_branch2b -> res2b_branch2b (in-place)
I0228 11:22:52.227560  9676 layer_factory.hpp:77] Creating layer scale2b_branch2b
I0228 11:22:52.227651  9676 net.cpp:122] Setting up scale2b_branch2b
I0228 11:22:52.227658  9676 net.cpp:129] Top shape: 8 64 56 56 (1605632)
I0228 11:22:52.227661  9676 net.cpp:137] Memory required for data: 494534656
I0228 11:22:52.227669  9676 layer_factory.hpp:77] Creating layer res2b_branch2b_relu
I0228 11:22:52.227676  9676 net.cpp:84] Creating Layer res2b_branch2b_relu
I0228 11:22:52.227680  9676 net.cpp:406] res2b_branch2b_relu <- res2b_branch2b
I0228 11:22:52.227685  9676 net.cpp:367] res2b_branch2b_relu -> res2b_branch2b (in-place)
I0228 11:22:52.228057  9676 net.cpp:122] Setting up res2b_branch2b_relu
I0228 11:22:52.228070  9676 net.cpp:129] Top shape: 8 64 56 56 (1605632)
I0228 11:22:52.228075  9676 net.cpp:137] Memory required for data: 500957184
I0228 11:22:52.228080  9676 layer_factory.hpp:77] Creating layer res2b_branch2c
I0228 11:22:52.228090  9676 net.cpp:84] Creating Layer res2b_branch2c
I0228 11:22:52.228093  9676 net.cpp:406] res2b_branch2c <- res2b_branch2b
I0228 11:22:52.228099  9676 net.cpp:380] res2b_branch2c -> res2b_branch2c
I0228 11:22:52.228917  9676 net.cpp:122] Setting up res2b_branch2c
I0228 11:22:52.228931  9676 net.cpp:129] Top shape: 8 256 56 56 (6422528)
I0228 11:22:52.228935  9676 net.cpp:137] Memory required for data: 526647296
I0228 11:22:52.228942  9676 layer_factory.hpp:77] Creating layer bn2b_branch2c
I0228 11:22:52.228950  9676 net.cpp:84] Creating Layer bn2b_branch2c
I0228 11:22:52.228953  9676 net.cpp:406] bn2b_branch2c <- res2b_branch2c
I0228 11:22:52.228960  9676 net.cpp:367] bn2b_branch2c -> res2b_branch2c (in-place)
I0228 11:22:52.229106  9676 net.cpp:122] Setting up bn2b_branch2c
I0228 11:22:52.229113  9676 net.cpp:129] Top shape: 8 256 56 56 (6422528)
I0228 11:22:52.229116  9676 net.cpp:137] Memory required for data: 552337408
I0228 11:22:52.229125  9676 layer_factory.hpp:77] Creating layer scale2b_branch2c
I0228 11:22:52.229131  9676 net.cpp:84] Creating Layer scale2b_branch2c
I0228 11:22:52.229135  9676 net.cpp:406] scale2b_branch2c <- res2b_branch2c
I0228 11:22:52.229140  9676 net.cpp:367] scale2b_branch2c -> res2b_branch2c (in-place)
I0228 11:22:52.229171  9676 layer_factory.hpp:77] Creating layer scale2b_branch2c
I0228 11:22:52.229259  9676 net.cpp:122] Setting up scale2b_branch2c
I0228 11:22:52.229266  9676 net.cpp:129] Top shape: 8 256 56 56 (6422528)
I0228 11:22:52.229269  9676 net.cpp:137] Memory required for data: 578027520
I0228 11:22:52.229277  9676 layer_factory.hpp:77] Creating layer res2b
I0228 11:22:52.229284  9676 net.cpp:84] Creating Layer res2b
I0228 11:22:52.229287  9676 net.cpp:406] res2b <- res2a_res2a_relu_0_split_1
I0228 11:22:52.229293  9676 net.cpp:406] res2b <- res2b_branch2c
I0228 11:22:52.229298  9676 net.cpp:380] res2b -> res2b
I0228 11:22:52.229318  9676 net.cpp:122] Setting up res2b
I0228 11:22:52.229324  9676 net.cpp:129] Top shape: 8 256 56 56 (6422528)
I0228 11:22:52.229327  9676 net.cpp:137] Memory required for data: 603717632
I0228 11:22:52.229331  9676 layer_factory.hpp:77] Creating layer res2b_relu
I0228 11:22:52.229336  9676 net.cpp:84] Creating Layer res2b_relu
I0228 11:22:52.229339  9676 net.cpp:406] res2b_relu <- res2b
I0228 11:22:52.229344  9676 net.cpp:367] res2b_relu -> res2b (in-place)
I0228 11:22:52.229490  9676 net.cpp:122] Setting up res2b_relu
I0228 11:22:52.229498  9676 net.cpp:129] Top shape: 8 256 56 56 (6422528)
I0228 11:22:52.229501  9676 net.cpp:137] Memory required for data: 629407744
I0228 11:22:52.229506  9676 layer_factory.hpp:77] Creating layer res2b_res2b_relu_0_split
I0228 11:22:52.229511  9676 net.cpp:84] Creating Layer res2b_res2b_relu_0_split
I0228 11:22:52.229514  9676 net.cpp:406] res2b_res2b_relu_0_split <- res2b
I0228 11:22:52.229521  9676 net.cpp:380] res2b_res2b_relu_0_split -> res2b_res2b_relu_0_split_0
I0228 11:22:52.229527  9676 net.cpp:380] res2b_res2b_relu_0_split -> res2b_res2b_relu_0_split_1
I0228 11:22:52.229558  9676 net.cpp:122] Setting up res2b_res2b_relu_0_split
I0228 11:22:52.229564  9676 net.cpp:129] Top shape: 8 256 56 56 (6422528)
I0228 11:22:52.229569  9676 net.cpp:129] Top shape: 8 256 56 56 (6422528)
I0228 11:22:52.229573  9676 net.cpp:137] Memory required for data: 680787968
I0228 11:22:52.229578  9676 layer_factory.hpp:77] Creating layer res2c_branch2a
I0228 11:22:52.229584  9676 net.cpp:84] Creating Layer res2c_branch2a
I0228 11:22:52.229588  9676 net.cpp:406] res2c_branch2a <- res2b_res2b_relu_0_split_0
I0228 11:22:52.229593  9676 net.cpp:380] res2c_branch2a -> res2c_branch2a
I0228 11:22:52.230494  9676 net.cpp:122] Setting up res2c_branch2a
I0228 11:22:52.230509  9676 net.cpp:129] Top shape: 8 64 56 56 (1605632)
I0228 11:22:52.230515  9676 net.cpp:137] Memory required for data: 687210496
I0228 11:22:52.230522  9676 layer_factory.hpp:77] Creating layer bn2c_branch2a
I0228 11:22:52.230530  9676 net.cpp:84] Creating Layer bn2c_branch2a
I0228 11:22:52.230535  9676 net.cpp:406] bn2c_branch2a <- res2c_branch2a
I0228 11:22:52.230540  9676 net.cpp:367] bn2c_branch2a -> res2c_branch2a (in-place)
I0228 11:22:52.230693  9676 net.cpp:122] Setting up bn2c_branch2a
I0228 11:22:52.230700  9676 net.cpp:129] Top shape: 8 64 56 56 (1605632)
I0228 11:22:52.230705  9676 net.cpp:137] Memory required for data: 693633024
I0228 11:22:52.230715  9676 layer_factory.hpp:77] Creating layer scale2c_branch2a
I0228 11:22:52.230720  9676 net.cpp:84] Creating Layer scale2c_branch2a
I0228 11:22:52.230725  9676 net.cpp:406] scale2c_branch2a <- res2c_branch2a
I0228 11:22:52.230729  9676 net.cpp:367] scale2c_branch2a -> res2c_branch2a (in-place)
I0228 11:22:52.230762  9676 layer_factory.hpp:77] Creating layer scale2c_branch2a
I0228 11:22:52.230854  9676 net.cpp:122] Setting up scale2c_branch2a
I0228 11:22:52.230859  9676 net.cpp:129] Top shape: 8 64 56 56 (1605632)
I0228 11:22:52.230864  9676 net.cpp:137] Memory required for data: 700055552
I0228 11:22:52.230871  9676 layer_factory.hpp:77] Creating layer res2c_branch2a_relu
I0228 11:22:52.230876  9676 net.cpp:84] Creating Layer res2c_branch2a_relu
I0228 11:22:52.230880  9676 net.cpp:406] res2c_branch2a_relu <- res2c_branch2a
I0228 11:22:52.230886  9676 net.cpp:367] res2c_branch2a_relu -> res2c_branch2a (in-place)
I0228 11:22:52.231029  9676 net.cpp:122] Setting up res2c_branch2a_relu
I0228 11:22:52.231039  9676 net.cpp:129] Top shape: 8 64 56 56 (1605632)
I0228 11:22:52.231041  9676 net.cpp:137] Memory required for data: 706478080
I0228 11:22:52.231045  9676 layer_factory.hpp:77] Creating layer res2c_branch2b
I0228 11:22:52.231053  9676 net.cpp:84] Creating Layer res2c_branch2b
I0228 11:22:52.231057  9676 net.cpp:406] res2c_branch2b <- res2c_branch2a
I0228 11:22:52.231062  9676 net.cpp:380] res2c_branch2b -> res2c_branch2b
I0228 11:22:52.232095  9676 net.cpp:122] Setting up res2c_branch2b
I0228 11:22:52.232108  9676 net.cpp:129] Top shape: 8 64 56 56 (1605632)
I0228 11:22:52.232112  9676 net.cpp:137] Memory required for data: 712900608
I0228 11:22:52.232120  9676 layer_factory.hpp:77] Creating layer bn2c_branch2b
I0228 11:22:52.232127  9676 net.cpp:84] Creating Layer bn2c_branch2b
I0228 11:22:52.232131  9676 net.cpp:406] bn2c_branch2b <- res2c_branch2b
I0228 11:22:52.232139  9676 net.cpp:367] bn2c_branch2b -> res2c_branch2b (in-place)
I0228 11:22:52.232295  9676 net.cpp:122] Setting up bn2c_branch2b
I0228 11:22:52.232302  9676 net.cpp:129] Top shape: 8 64 56 56 (1605632)
I0228 11:22:52.232306  9676 net.cpp:137] Memory required for data: 719323136
I0228 11:22:52.232316  9676 layer_factory.hpp:77] Creating layer scale2c_branch2b
I0228 11:22:52.232321  9676 net.cpp:84] Creating Layer scale2c_branch2b
I0228 11:22:52.232326  9676 net.cpp:406] scale2c_branch2b <- res2c_branch2b
I0228 11:22:52.232331  9676 net.cpp:367] scale2c_branch2b -> res2c_branch2b (in-place)
I0228 11:22:52.232363  9676 layer_factory.hpp:77] Creating layer scale2c_branch2b
I0228 11:22:52.232455  9676 net.cpp:122] Setting up scale2c_branch2b
I0228 11:22:52.232462  9676 net.cpp:129] Top shape: 8 64 56 56 (1605632)
I0228 11:22:52.232465  9676 net.cpp:137] Memory required for data: 725745664
I0228 11:22:52.232472  9676 layer_factory.hpp:77] Creating layer res2c_branch2b_relu
I0228 11:22:52.232477  9676 net.cpp:84] Creating Layer res2c_branch2b_relu
I0228 11:22:52.232481  9676 net.cpp:406] res2c_branch2b_relu <- res2c_branch2b
I0228 11:22:52.232486  9676 net.cpp:367] res2c_branch2b_relu -> res2c_branch2b (in-place)
I0228 11:22:52.232636  9676 net.cpp:122] Setting up res2c_branch2b_relu
I0228 11:22:52.232645  9676 net.cpp:129] Top shape: 8 64 56 56 (1605632)
I0228 11:22:52.232648  9676 net.cpp:137] Memory required for data: 732168192
I0228 11:22:52.232652  9676 layer_factory.hpp:77] Creating layer res2c_branch2c
I0228 11:22:52.232662  9676 net.cpp:84] Creating Layer res2c_branch2c
I0228 11:22:52.232667  9676 net.cpp:406] res2c_branch2c <- res2c_branch2b
I0228 11:22:52.232672  9676 net.cpp:380] res2c_branch2c -> res2c_branch2c
I0228 11:22:52.233490  9676 net.cpp:122] Setting up res2c_branch2c
I0228 11:22:52.233505  9676 net.cpp:129] Top shape: 8 256 56 56 (6422528)
I0228 11:22:52.233508  9676 net.cpp:137] Memory required for data: 757858304
I0228 11:22:52.233515  9676 layer_factory.hpp:77] Creating layer bn2c_branch2c
I0228 11:22:52.233522  9676 net.cpp:84] Creating Layer bn2c_branch2c
I0228 11:22:52.233526  9676 net.cpp:406] bn2c_branch2c <- res2c_branch2c
I0228 11:22:52.233534  9676 net.cpp:367] bn2c_branch2c -> res2c_branch2c (in-place)
I0228 11:22:52.233683  9676 net.cpp:122] Setting up bn2c_branch2c
I0228 11:22:52.233690  9676 net.cpp:129] Top shape: 8 256 56 56 (6422528)
I0228 11:22:52.233695  9676 net.cpp:137] Memory required for data: 783548416
I0228 11:22:52.233712  9676 layer_factory.hpp:77] Creating layer scale2c_branch2c
I0228 11:22:52.233721  9676 net.cpp:84] Creating Layer scale2c_branch2c
I0228 11:22:52.233723  9676 net.cpp:406] scale2c_branch2c <- res2c_branch2c
I0228 11:22:52.233728  9676 net.cpp:367] scale2c_branch2c -> res2c_branch2c (in-place)
I0228 11:22:52.233762  9676 layer_factory.hpp:77] Creating layer scale2c_branch2c
I0228 11:22:52.233850  9676 net.cpp:122] Setting up scale2c_branch2c
I0228 11:22:52.233856  9676 net.cpp:129] Top shape: 8 256 56 56 (6422528)
I0228 11:22:52.233860  9676 net.cpp:137] Memory required for data: 809238528
I0228 11:22:52.233866  9676 layer_factory.hpp:77] Creating layer res2c
I0228 11:22:52.233872  9676 net.cpp:84] Creating Layer res2c
I0228 11:22:52.233876  9676 net.cpp:406] res2c <- res2b_res2b_relu_0_split_1
I0228 11:22:52.233881  9676 net.cpp:406] res2c <- res2c_branch2c
I0228 11:22:52.233886  9676 net.cpp:380] res2c -> res2c
I0228 11:22:52.233906  9676 net.cpp:122] Setting up res2c
I0228 11:22:52.233911  9676 net.cpp:129] Top shape: 8 256 56 56 (6422528)
I0228 11:22:52.233914  9676 net.cpp:137] Memory required for data: 834928640
I0228 11:22:52.233917  9676 layer_factory.hpp:77] Creating layer res2c_relu
I0228 11:22:52.233923  9676 net.cpp:84] Creating Layer res2c_relu
I0228 11:22:52.233927  9676 net.cpp:406] res2c_relu <- res2c
I0228 11:22:52.233932  9676 net.cpp:367] res2c_relu -> res2c (in-place)
I0228 11:22:52.234076  9676 net.cpp:122] Setting up res2c_relu
I0228 11:22:52.234084  9676 net.cpp:129] Top shape: 8 256 56 56 (6422528)
I0228 11:22:52.234088  9676 net.cpp:137] Memory required for data: 860618752
I0228 11:22:52.234093  9676 layer_factory.hpp:77] Creating layer res2c_res2c_relu_0_split
I0228 11:22:52.234098  9676 net.cpp:84] Creating Layer res2c_res2c_relu_0_split
I0228 11:22:52.234102  9676 net.cpp:406] res2c_res2c_relu_0_split <- res2c
I0228 11:22:52.234129  9676 net.cpp:380] res2c_res2c_relu_0_split -> res2c_res2c_relu_0_split_0
I0228 11:22:52.234136  9676 net.cpp:380] res2c_res2c_relu_0_split -> res2c_res2c_relu_0_split_1
I0228 11:22:52.234171  9676 net.cpp:122] Setting up res2c_res2c_relu_0_split
I0228 11:22:52.234177  9676 net.cpp:129] Top shape: 8 256 56 56 (6422528)
I0228 11:22:52.234182  9676 net.cpp:129] Top shape: 8 256 56 56 (6422528)
I0228 11:22:52.234186  9676 net.cpp:137] Memory required for data: 911998976
I0228 11:22:52.234190  9676 layer_factory.hpp:77] Creating layer res3a_branch1
I0228 11:22:52.234199  9676 net.cpp:84] Creating Layer res3a_branch1
I0228 11:22:52.234202  9676 net.cpp:406] res3a_branch1 <- res2c_res2c_relu_0_split_0
I0228 11:22:52.234207  9676 net.cpp:380] res3a_branch1 -> res3a_branch1
I0228 11:22:52.235916  9676 net.cpp:122] Setting up res3a_branch1
I0228 11:22:52.235931  9676 net.cpp:129] Top shape: 8 512 28 28 (3211264)
I0228 11:22:52.235935  9676 net.cpp:137] Memory required for data: 924844032
I0228 11:22:52.235941  9676 layer_factory.hpp:77] Creating layer bn3a_branch1
I0228 11:22:52.235949  9676 net.cpp:84] Creating Layer bn3a_branch1
I0228 11:22:52.235954  9676 net.cpp:406] bn3a_branch1 <- res3a_branch1
I0228 11:22:52.235961  9676 net.cpp:367] bn3a_branch1 -> res3a_branch1 (in-place)
I0228 11:22:52.236930  9676 net.cpp:122] Setting up bn3a_branch1
I0228 11:22:52.236945  9676 net.cpp:129] Top shape: 8 512 28 28 (3211264)
I0228 11:22:52.236949  9676 net.cpp:137] Memory required for data: 937689088
I0228 11:22:52.236963  9676 layer_factory.hpp:77] Creating layer scale3a_branch1
I0228 11:22:52.236970  9676 net.cpp:84] Creating Layer scale3a_branch1
I0228 11:22:52.236975  9676 net.cpp:406] scale3a_branch1 <- res3a_branch1
I0228 11:22:52.236981  9676 net.cpp:367] scale3a_branch1 -> res3a_branch1 (in-place)
I0228 11:22:52.237020  9676 layer_factory.hpp:77] Creating layer scale3a_branch1
I0228 11:22:52.237120  9676 net.cpp:122] Setting up scale3a_branch1
I0228 11:22:52.237128  9676 net.cpp:129] Top shape: 8 512 28 28 (3211264)
I0228 11:22:52.237131  9676 net.cpp:137] Memory required for data: 950534144
I0228 11:22:52.237138  9676 layer_factory.hpp:77] Creating layer res3a_branch2a
I0228 11:22:52.237145  9676 net.cpp:84] Creating Layer res3a_branch2a
I0228 11:22:52.237149  9676 net.cpp:406] res3a_branch2a <- res2c_res2c_relu_0_split_1
I0228 11:22:52.237155  9676 net.cpp:380] res3a_branch2a -> res3a_branch2a
I0228 11:22:52.237996  9676 net.cpp:122] Setting up res3a_branch2a
I0228 11:22:52.238010  9676 net.cpp:129] Top shape: 8 128 28 28 (802816)
I0228 11:22:52.238014  9676 net.cpp:137] Memory required for data: 953745408
I0228 11:22:52.238021  9676 layer_factory.hpp:77] Creating layer bn3a_branch2a
I0228 11:22:52.238029  9676 net.cpp:84] Creating Layer bn3a_branch2a
I0228 11:22:52.238032  9676 net.cpp:406] bn3a_branch2a <- res3a_branch2a
I0228 11:22:52.238039  9676 net.cpp:367] bn3a_branch2a -> res3a_branch2a (in-place)
I0228 11:22:52.238220  9676 net.cpp:122] Setting up bn3a_branch2a
I0228 11:22:52.238229  9676 net.cpp:129] Top shape: 8 128 28 28 (802816)
I0228 11:22:52.238232  9676 net.cpp:137] Memory required for data: 956956672
I0228 11:22:52.238242  9676 layer_factory.hpp:77] Creating layer scale3a_branch2a
I0228 11:22:52.238250  9676 net.cpp:84] Creating Layer scale3a_branch2a
I0228 11:22:52.238253  9676 net.cpp:406] scale3a_branch2a <- res3a_branch2a
I0228 11:22:52.238260  9676 net.cpp:367] scale3a_branch2a -> res3a_branch2a (in-place)
I0228 11:22:52.238294  9676 layer_factory.hpp:77] Creating layer scale3a_branch2a
I0228 11:22:52.238387  9676 net.cpp:122] Setting up scale3a_branch2a
I0228 11:22:52.238394  9676 net.cpp:129] Top shape: 8 128 28 28 (802816)
I0228 11:22:52.238397  9676 net.cpp:137] Memory required for data: 960167936
I0228 11:22:52.238404  9676 layer_factory.hpp:77] Creating layer res3a_branch2a_relu
I0228 11:22:52.238410  9676 net.cpp:84] Creating Layer res3a_branch2a_relu
I0228 11:22:52.238415  9676 net.cpp:406] res3a_branch2a_relu <- res3a_branch2a
I0228 11:22:52.238420  9676 net.cpp:367] res3a_branch2a_relu -> res3a_branch2a (in-place)
I0228 11:22:52.238582  9676 net.cpp:122] Setting up res3a_branch2a_relu
I0228 11:22:52.238591  9676 net.cpp:129] Top shape: 8 128 28 28 (802816)
I0228 11:22:52.238595  9676 net.cpp:137] Memory required for data: 963379200
I0228 11:22:52.238598  9676 layer_factory.hpp:77] Creating layer res3a_branch2b
I0228 11:22:52.238605  9676 net.cpp:84] Creating Layer res3a_branch2b
I0228 11:22:52.238610  9676 net.cpp:406] res3a_branch2b <- res3a_branch2a
I0228 11:22:52.238617  9676 net.cpp:380] res3a_branch2b -> res3a_branch2b
I0228 11:22:52.239732  9676 net.cpp:122] Setting up res3a_branch2b
I0228 11:22:52.239745  9676 net.cpp:129] Top shape: 8 128 28 28 (802816)
I0228 11:22:52.239749  9676 net.cpp:137] Memory required for data: 966590464
I0228 11:22:52.239758  9676 layer_factory.hpp:77] Creating layer bn3a_branch2b
I0228 11:22:52.239765  9676 net.cpp:84] Creating Layer bn3a_branch2b
I0228 11:22:52.239769  9676 net.cpp:406] bn3a_branch2b <- res3a_branch2b
I0228 11:22:52.239775  9676 net.cpp:367] bn3a_branch2b -> res3a_branch2b (in-place)
I0228 11:22:52.239928  9676 net.cpp:122] Setting up bn3a_branch2b
I0228 11:22:52.239934  9676 net.cpp:129] Top shape: 8 128 28 28 (802816)
I0228 11:22:52.239938  9676 net.cpp:137] Memory required for data: 969801728
I0228 11:22:52.239949  9676 layer_factory.hpp:77] Creating layer scale3a_branch2b
I0228 11:22:52.239955  9676 net.cpp:84] Creating Layer scale3a_branch2b
I0228 11:22:52.239959  9676 net.cpp:406] scale3a_branch2b <- res3a_branch2b
I0228 11:22:52.239965  9676 net.cpp:367] scale3a_branch2b -> res3a_branch2b (in-place)
I0228 11:22:52.240000  9676 layer_factory.hpp:77] Creating layer scale3a_branch2b
I0228 11:22:52.240084  9676 net.cpp:122] Setting up scale3a_branch2b
I0228 11:22:52.240092  9676 net.cpp:129] Top shape: 8 128 28 28 (802816)
I0228 11:22:52.240094  9676 net.cpp:137] Memory required for data: 973012992
I0228 11:22:52.240101  9676 layer_factory.hpp:77] Creating layer res3a_branch2b_relu
I0228 11:22:52.240106  9676 net.cpp:84] Creating Layer res3a_branch2b_relu
I0228 11:22:52.240110  9676 net.cpp:406] res3a_branch2b_relu <- res3a_branch2b
I0228 11:22:52.240115  9676 net.cpp:367] res3a_branch2b_relu -> res3a_branch2b (in-place)
I0228 11:22:52.240491  9676 net.cpp:122] Setting up res3a_branch2b_relu
I0228 11:22:52.240504  9676 net.cpp:129] Top shape: 8 128 28 28 (802816)
I0228 11:22:52.240507  9676 net.cpp:137] Memory required for data: 976224256
I0228 11:22:52.240514  9676 layer_factory.hpp:77] Creating layer res3a_branch2c
I0228 11:22:52.240527  9676 net.cpp:84] Creating Layer res3a_branch2c
I0228 11:22:52.240532  9676 net.cpp:406] res3a_branch2c <- res3a_branch2b
I0228 11:22:52.240538  9676 net.cpp:380] res3a_branch2c -> res3a_branch2c
I0228 11:22:52.241183  9676 net.cpp:122] Setting up res3a_branch2c
I0228 11:22:52.241194  9676 net.cpp:129] Top shape: 8 512 28 28 (3211264)
I0228 11:22:52.241199  9676 net.cpp:137] Memory required for data: 989069312
I0228 11:22:52.241205  9676 layer_factory.hpp:77] Creating layer bn3a_branch2c
I0228 11:22:52.241211  9676 net.cpp:84] Creating Layer bn3a_branch2c
I0228 11:22:52.241215  9676 net.cpp:406] bn3a_branch2c <- res3a_branch2c
I0228 11:22:52.241221  9676 net.cpp:367] bn3a_branch2c -> res3a_branch2c (in-place)
I0228 11:22:52.241371  9676 net.cpp:122] Setting up bn3a_branch2c
I0228 11:22:52.241379  9676 net.cpp:129] Top shape: 8 512 28 28 (3211264)
I0228 11:22:52.241382  9676 net.cpp:137] Memory required for data: 1001914368
I0228 11:22:52.241389  9676 layer_factory.hpp:77] Creating layer scale3a_branch2c
I0228 11:22:52.241395  9676 net.cpp:84] Creating Layer scale3a_branch2c
I0228 11:22:52.241400  9676 net.cpp:406] scale3a_branch2c <- res3a_branch2c
I0228 11:22:52.241405  9676 net.cpp:367] scale3a_branch2c -> res3a_branch2c (in-place)
I0228 11:22:52.241438  9676 layer_factory.hpp:77] Creating layer scale3a_branch2c
I0228 11:22:52.241523  9676 net.cpp:122] Setting up scale3a_branch2c
I0228 11:22:52.241530  9676 net.cpp:129] Top shape: 8 512 28 28 (3211264)
I0228 11:22:52.241533  9676 net.cpp:137] Memory required for data: 1014759424
I0228 11:22:52.241540  9676 layer_factory.hpp:77] Creating layer res3a
I0228 11:22:52.241545  9676 net.cpp:84] Creating Layer res3a
I0228 11:22:52.241549  9676 net.cpp:406] res3a <- res3a_branch1
I0228 11:22:52.241554  9676 net.cpp:406] res3a <- res3a_branch2c
I0228 11:22:52.241559  9676 net.cpp:380] res3a -> res3a
I0228 11:22:52.241577  9676 net.cpp:122] Setting up res3a
I0228 11:22:52.241585  9676 net.cpp:129] Top shape: 8 512 28 28 (3211264)
I0228 11:22:52.241587  9676 net.cpp:137] Memory required for data: 1027604480
I0228 11:22:52.241592  9676 layer_factory.hpp:77] Creating layer res3a_relu
I0228 11:22:52.241598  9676 net.cpp:84] Creating Layer res3a_relu
I0228 11:22:52.241601  9676 net.cpp:406] res3a_relu <- res3a
I0228 11:22:52.241606  9676 net.cpp:367] res3a_relu -> res3a (in-place)
I0228 11:22:52.241997  9676 net.cpp:122] Setting up res3a_relu
I0228 11:22:52.242010  9676 net.cpp:129] Top shape: 8 512 28 28 (3211264)
I0228 11:22:52.242013  9676 net.cpp:137] Memory required for data: 1040449536
I0228 11:22:52.242018  9676 layer_factory.hpp:77] Creating layer res3a_res3a_relu_0_split
I0228 11:22:52.242024  9676 net.cpp:84] Creating Layer res3a_res3a_relu_0_split
I0228 11:22:52.242028  9676 net.cpp:406] res3a_res3a_relu_0_split <- res3a
I0228 11:22:52.242038  9676 net.cpp:380] res3a_res3a_relu_0_split -> res3a_res3a_relu_0_split_0
I0228 11:22:52.242045  9676 net.cpp:380] res3a_res3a_relu_0_split -> res3a_res3a_relu_0_split_1
I0228 11:22:52.242084  9676 net.cpp:122] Setting up res3a_res3a_relu_0_split
I0228 11:22:52.242091  9676 net.cpp:129] Top shape: 8 512 28 28 (3211264)
I0228 11:22:52.242096  9676 net.cpp:129] Top shape: 8 512 28 28 (3211264)
I0228 11:22:52.242100  9676 net.cpp:137] Memory required for data: 1066139648
I0228 11:22:52.242103  9676 layer_factory.hpp:77] Creating layer res3b_branch2a
I0228 11:22:52.242136  9676 net.cpp:84] Creating Layer res3b_branch2a
I0228 11:22:52.242141  9676 net.cpp:406] res3b_branch2a <- res3a_res3a_relu_0_split_0
I0228 11:22:52.242147  9676 net.cpp:380] res3b_branch2a -> res3b_branch2a
I0228 11:22:52.243269  9676 net.cpp:122] Setting up res3b_branch2a
I0228 11:22:52.243283  9676 net.cpp:129] Top shape: 8 128 28 28 (802816)
I0228 11:22:52.243288  9676 net.cpp:137] Memory required for data: 1069350912
I0228 11:22:52.243296  9676 layer_factory.hpp:77] Creating layer bn3b_branch2a
I0228 11:22:52.243304  9676 net.cpp:84] Creating Layer bn3b_branch2a
I0228 11:22:52.243309  9676 net.cpp:406] bn3b_branch2a <- res3b_branch2a
I0228 11:22:52.243314  9676 net.cpp:367] bn3b_branch2a -> res3b_branch2a (in-place)
I0228 11:22:52.243472  9676 net.cpp:122] Setting up bn3b_branch2a
I0228 11:22:52.243479  9676 net.cpp:129] Top shape: 8 128 28 28 (802816)
I0228 11:22:52.243482  9676 net.cpp:137] Memory required for data: 1072562176
I0228 11:22:52.243491  9676 layer_factory.hpp:77] Creating layer scale3b_branch2a
I0228 11:22:52.243497  9676 net.cpp:84] Creating Layer scale3b_branch2a
I0228 11:22:52.243501  9676 net.cpp:406] scale3b_branch2a <- res3b_branch2a
I0228 11:22:52.243506  9676 net.cpp:367] scale3b_branch2a -> res3b_branch2a (in-place)
I0228 11:22:52.243540  9676 layer_factory.hpp:77] Creating layer scale3b_branch2a
I0228 11:22:52.243629  9676 net.cpp:122] Setting up scale3b_branch2a
I0228 11:22:52.243636  9676 net.cpp:129] Top shape: 8 128 28 28 (802816)
I0228 11:22:52.243639  9676 net.cpp:137] Memory required for data: 1075773440
I0228 11:22:52.243646  9676 layer_factory.hpp:77] Creating layer res3b_branch2a_relu
I0228 11:22:52.243652  9676 net.cpp:84] Creating Layer res3b_branch2a_relu
I0228 11:22:52.243655  9676 net.cpp:406] res3b_branch2a_relu <- res3b_branch2a
I0228 11:22:52.243660  9676 net.cpp:367] res3b_branch2a_relu -> res3b_branch2a (in-place)
I0228 11:22:52.243818  9676 net.cpp:122] Setting up res3b_branch2a_relu
I0228 11:22:52.243826  9676 net.cpp:129] Top shape: 8 128 28 28 (802816)
I0228 11:22:52.243829  9676 net.cpp:137] Memory required for data: 1078984704
I0228 11:22:52.243835  9676 layer_factory.hpp:77] Creating layer res3b_branch2b
I0228 11:22:52.243842  9676 net.cpp:84] Creating Layer res3b_branch2b
I0228 11:22:52.243846  9676 net.cpp:406] res3b_branch2b <- res3b_branch2a
I0228 11:22:52.243852  9676 net.cpp:380] res3b_branch2b -> res3b_branch2b
I0228 11:22:52.245209  9676 net.cpp:122] Setting up res3b_branch2b
I0228 11:22:52.245223  9676 net.cpp:129] Top shape: 8 128 28 28 (802816)
I0228 11:22:52.245227  9676 net.cpp:137] Memory required for data: 1082195968
I0228 11:22:52.245234  9676 layer_factory.hpp:77] Creating layer bn3b_branch2b
I0228 11:22:52.245241  9676 net.cpp:84] Creating Layer bn3b_branch2b
I0228 11:22:52.245245  9676 net.cpp:406] bn3b_branch2b <- res3b_branch2b
I0228 11:22:52.245252  9676 net.cpp:367] bn3b_branch2b -> res3b_branch2b (in-place)
I0228 11:22:52.245412  9676 net.cpp:122] Setting up bn3b_branch2b
I0228 11:22:52.245419  9676 net.cpp:129] Top shape: 8 128 28 28 (802816)
I0228 11:22:52.245424  9676 net.cpp:137] Memory required for data: 1085407232
I0228 11:22:52.245431  9676 layer_factory.hpp:77] Creating layer scale3b_branch2b
I0228 11:22:52.245437  9676 net.cpp:84] Creating Layer scale3b_branch2b
I0228 11:22:52.245441  9676 net.cpp:406] scale3b_branch2b <- res3b_branch2b
I0228 11:22:52.245446  9676 net.cpp:367] scale3b_branch2b -> res3b_branch2b (in-place)
I0228 11:22:52.245486  9676 layer_factory.hpp:77] Creating layer scale3b_branch2b
I0228 11:22:52.245573  9676 net.cpp:122] Setting up scale3b_branch2b
I0228 11:22:52.245580  9676 net.cpp:129] Top shape: 8 128 28 28 (802816)
I0228 11:22:52.245584  9676 net.cpp:137] Memory required for data: 1088618496
I0228 11:22:52.245594  9676 layer_factory.hpp:77] Creating layer res3b_branch2b_relu
I0228 11:22:52.245599  9676 net.cpp:84] Creating Layer res3b_branch2b_relu
I0228 11:22:52.245602  9676 net.cpp:406] res3b_branch2b_relu <- res3b_branch2b
I0228 11:22:52.245607  9676 net.cpp:367] res3b_branch2b_relu -> res3b_branch2b (in-place)
I0228 11:22:52.245765  9676 net.cpp:122] Setting up res3b_branch2b_relu
I0228 11:22:52.245774  9676 net.cpp:129] Top shape: 8 128 28 28 (802816)
I0228 11:22:52.245777  9676 net.cpp:137] Memory required for data: 1091829760
I0228 11:22:52.245781  9676 layer_factory.hpp:77] Creating layer res3b_branch2c
I0228 11:22:52.245788  9676 net.cpp:84] Creating Layer res3b_branch2c
I0228 11:22:52.245792  9676 net.cpp:406] res3b_branch2c <- res3b_branch2b
I0228 11:22:52.245798  9676 net.cpp:380] res3b_branch2c -> res3b_branch2c
I0228 11:22:52.246743  9676 net.cpp:122] Setting up res3b_branch2c
I0228 11:22:52.246757  9676 net.cpp:129] Top shape: 8 512 28 28 (3211264)
I0228 11:22:52.246762  9676 net.cpp:137] Memory required for data: 1104674816
I0228 11:22:52.246767  9676 layer_factory.hpp:77] Creating layer bn3b_branch2c
I0228 11:22:52.246774  9676 net.cpp:84] Creating Layer bn3b_branch2c
I0228 11:22:52.246779  9676 net.cpp:406] bn3b_branch2c <- res3b_branch2c
I0228 11:22:52.246784  9676 net.cpp:367] bn3b_branch2c -> res3b_branch2c (in-place)
I0228 11:22:52.246940  9676 net.cpp:122] Setting up bn3b_branch2c
I0228 11:22:52.246948  9676 net.cpp:129] Top shape: 8 512 28 28 (3211264)
I0228 11:22:52.246951  9676 net.cpp:137] Memory required for data: 1117519872
I0228 11:22:52.246959  9676 layer_factory.hpp:77] Creating layer scale3b_branch2c
I0228 11:22:52.246965  9676 net.cpp:84] Creating Layer scale3b_branch2c
I0228 11:22:52.246969  9676 net.cpp:406] scale3b_branch2c <- res3b_branch2c
I0228 11:22:52.246975  9676 net.cpp:367] scale3b_branch2c -> res3b_branch2c (in-place)
I0228 11:22:52.247009  9676 layer_factory.hpp:77] Creating layer scale3b_branch2c
I0228 11:22:52.247098  9676 net.cpp:122] Setting up scale3b_branch2c
I0228 11:22:52.247105  9676 net.cpp:129] Top shape: 8 512 28 28 (3211264)
I0228 11:22:52.247108  9676 net.cpp:137] Memory required for data: 1130364928
I0228 11:22:52.247117  9676 layer_factory.hpp:77] Creating layer res3b
I0228 11:22:52.247123  9676 net.cpp:84] Creating Layer res3b
I0228 11:22:52.247128  9676 net.cpp:406] res3b <- res3a_res3a_relu_0_split_1
I0228 11:22:52.247133  9676 net.cpp:406] res3b <- res3b_branch2c
I0228 11:22:52.247138  9676 net.cpp:380] res3b -> res3b
I0228 11:22:52.247159  9676 net.cpp:122] Setting up res3b
I0228 11:22:52.247164  9676 net.cpp:129] Top shape: 8 512 28 28 (3211264)
I0228 11:22:52.247167  9676 net.cpp:137] Memory required for data: 1143209984
I0228 11:22:52.247171  9676 layer_factory.hpp:77] Creating layer res3b_relu
I0228 11:22:52.247176  9676 net.cpp:84] Creating Layer res3b_relu
I0228 11:22:52.247179  9676 net.cpp:406] res3b_relu <- res3b
I0228 11:22:52.247184  9676 net.cpp:367] res3b_relu -> res3b (in-place)
I0228 11:22:52.247331  9676 net.cpp:122] Setting up res3b_relu
I0228 11:22:52.247339  9676 net.cpp:129] Top shape: 8 512 28 28 (3211264)
I0228 11:22:52.247342  9676 net.cpp:137] Memory required for data: 1156055040
I0228 11:22:52.247347  9676 layer_factory.hpp:77] Creating layer res3b_res3b_relu_0_split
I0228 11:22:52.247354  9676 net.cpp:84] Creating Layer res3b_res3b_relu_0_split
I0228 11:22:52.247356  9676 net.cpp:406] res3b_res3b_relu_0_split <- res3b
I0228 11:22:52.247362  9676 net.cpp:380] res3b_res3b_relu_0_split -> res3b_res3b_relu_0_split_0
I0228 11:22:52.247368  9676 net.cpp:380] res3b_res3b_relu_0_split -> res3b_res3b_relu_0_split_1
I0228 11:22:52.247401  9676 net.cpp:122] Setting up res3b_res3b_relu_0_split
I0228 11:22:52.247407  9676 net.cpp:129] Top shape: 8 512 28 28 (3211264)
I0228 11:22:52.247416  9676 net.cpp:129] Top shape: 8 512 28 28 (3211264)
I0228 11:22:52.247419  9676 net.cpp:137] Memory required for data: 1181745152
I0228 11:22:52.247424  9676 layer_factory.hpp:77] Creating layer res3c_branch2a
I0228 11:22:52.247431  9676 net.cpp:84] Creating Layer res3c_branch2a
I0228 11:22:52.247436  9676 net.cpp:406] res3c_branch2a <- res3b_res3b_relu_0_split_0
I0228 11:22:52.247442  9676 net.cpp:380] res3c_branch2a -> res3c_branch2a
I0228 11:22:52.248317  9676 net.cpp:122] Setting up res3c_branch2a
I0228 11:22:52.248329  9676 net.cpp:129] Top shape: 8 128 28 28 (802816)
I0228 11:22:52.248333  9676 net.cpp:137] Memory required for data: 1184956416
I0228 11:22:52.248340  9676 layer_factory.hpp:77] Creating layer bn3c_branch2a
I0228 11:22:52.248347  9676 net.cpp:84] Creating Layer bn3c_branch2a
I0228 11:22:52.248351  9676 net.cpp:406] bn3c_branch2a <- res3c_branch2a
I0228 11:22:52.248356  9676 net.cpp:367] bn3c_branch2a -> res3c_branch2a (in-place)
I0228 11:22:52.248514  9676 net.cpp:122] Setting up bn3c_branch2a
I0228 11:22:52.248520  9676 net.cpp:129] Top shape: 8 128 28 28 (802816)
I0228 11:22:52.248524  9676 net.cpp:137] Memory required for data: 1188167680
I0228 11:22:52.248533  9676 layer_factory.hpp:77] Creating layer scale3c_branch2a
I0228 11:22:52.248538  9676 net.cpp:84] Creating Layer scale3c_branch2a
I0228 11:22:52.248543  9676 net.cpp:406] scale3c_branch2a <- res3c_branch2a
I0228 11:22:52.248548  9676 net.cpp:367] scale3c_branch2a -> res3c_branch2a (in-place)
I0228 11:22:52.248580  9676 layer_factory.hpp:77] Creating layer scale3c_branch2a
I0228 11:22:52.248669  9676 net.cpp:122] Setting up scale3c_branch2a
I0228 11:22:52.248677  9676 net.cpp:129] Top shape: 8 128 28 28 (802816)
I0228 11:22:52.248679  9676 net.cpp:137] Memory required for data: 1191378944
I0228 11:22:52.248688  9676 layer_factory.hpp:77] Creating layer res3c_branch2a_relu
I0228 11:22:52.248694  9676 net.cpp:84] Creating Layer res3c_branch2a_relu
I0228 11:22:52.248698  9676 net.cpp:406] res3c_branch2a_relu <- res3c_branch2a
I0228 11:22:52.248703  9676 net.cpp:367] res3c_branch2a_relu -> res3c_branch2a (in-place)
I0228 11:22:52.248847  9676 net.cpp:122] Setting up res3c_branch2a_relu
I0228 11:22:52.248857  9676 net.cpp:129] Top shape: 8 128 28 28 (802816)
I0228 11:22:52.248859  9676 net.cpp:137] Memory required for data: 1194590208
I0228 11:22:52.248863  9676 layer_factory.hpp:77] Creating layer res3c_branch2b
I0228 11:22:52.248872  9676 net.cpp:84] Creating Layer res3c_branch2b
I0228 11:22:52.248875  9676 net.cpp:406] res3c_branch2b <- res3c_branch2a
I0228 11:22:52.248880  9676 net.cpp:380] res3c_branch2b -> res3c_branch2b
I0228 11:22:52.250852  9676 net.cpp:122] Setting up res3c_branch2b
I0228 11:22:52.250866  9676 net.cpp:129] Top shape: 8 128 28 28 (802816)
I0228 11:22:52.250871  9676 net.cpp:137] Memory required for data: 1197801472
I0228 11:22:52.250879  9676 layer_factory.hpp:77] Creating layer bn3c_branch2b
I0228 11:22:52.250885  9676 net.cpp:84] Creating Layer bn3c_branch2b
I0228 11:22:52.250890  9676 net.cpp:406] bn3c_branch2b <- res3c_branch2b
I0228 11:22:52.250896  9676 net.cpp:367] bn3c_branch2b -> res3c_branch2b (in-place)
I0228 11:22:52.251057  9676 net.cpp:122] Setting up bn3c_branch2b
I0228 11:22:52.251065  9676 net.cpp:129] Top shape: 8 128 28 28 (802816)
I0228 11:22:52.251068  9676 net.cpp:137] Memory required for data: 1201012736
I0228 11:22:52.251080  9676 layer_factory.hpp:77] Creating layer scale3c_branch2b
I0228 11:22:52.251085  9676 net.cpp:84] Creating Layer scale3c_branch2b
I0228 11:22:52.251090  9676 net.cpp:406] scale3c_branch2b <- res3c_branch2b
I0228 11:22:52.251094  9676 net.cpp:367] scale3c_branch2b -> res3c_branch2b (in-place)
I0228 11:22:52.251129  9676 layer_factory.hpp:77] Creating layer scale3c_branch2b
I0228 11:22:52.251219  9676 net.cpp:122] Setting up scale3c_branch2b
I0228 11:22:52.251226  9676 net.cpp:129] Top shape: 8 128 28 28 (802816)
I0228 11:22:52.251230  9676 net.cpp:137] Memory required for data: 1204224000
I0228 11:22:52.251241  9676 layer_factory.hpp:77] Creating layer res3c_branch2b_relu
I0228 11:22:52.251247  9676 net.cpp:84] Creating Layer res3c_branch2b_relu
I0228 11:22:52.251251  9676 net.cpp:406] res3c_branch2b_relu <- res3c_branch2b
I0228 11:22:52.251255  9676 net.cpp:367] res3c_branch2b_relu -> res3c_branch2b (in-place)
I0228 11:22:52.251639  9676 net.cpp:122] Setting up res3c_branch2b_relu
I0228 11:22:52.251652  9676 net.cpp:129] Top shape: 8 128 28 28 (802816)
I0228 11:22:52.251657  9676 net.cpp:137] Memory required for data: 1207435264
I0228 11:22:52.251660  9676 layer_factory.hpp:77] Creating layer res3c_branch2c
I0228 11:22:52.251668  9676 net.cpp:84] Creating Layer res3c_branch2c
I0228 11:22:52.251673  9676 net.cpp:406] res3c_branch2c <- res3c_branch2b
I0228 11:22:52.251679  9676 net.cpp:380] res3c_branch2c -> res3c_branch2c
I0228 11:22:52.252323  9676 net.cpp:122] Setting up res3c_branch2c
I0228 11:22:52.252334  9676 net.cpp:129] Top shape: 8 512 28 28 (3211264)
I0228 11:22:52.252338  9676 net.cpp:137] Memory required for data: 1220280320
I0228 11:22:52.252346  9676 layer_factory.hpp:77] Creating layer bn3c_branch2c
I0228 11:22:52.252352  9676 net.cpp:84] Creating Layer bn3c_branch2c
I0228 11:22:52.252357  9676 net.cpp:406] bn3c_branch2c <- res3c_branch2c
I0228 11:22:52.252362  9676 net.cpp:367] bn3c_branch2c -> res3c_branch2c (in-place)
I0228 11:22:52.252519  9676 net.cpp:122] Setting up bn3c_branch2c
I0228 11:22:52.252526  9676 net.cpp:129] Top shape: 8 512 28 28 (3211264)
I0228 11:22:52.252530  9676 net.cpp:137] Memory required for data: 1233125376
I0228 11:22:52.252538  9676 layer_factory.hpp:77] Creating layer scale3c_branch2c
I0228 11:22:52.252544  9676 net.cpp:84] Creating Layer scale3c_branch2c
I0228 11:22:52.252548  9676 net.cpp:406] scale3c_branch2c <- res3c_branch2c
I0228 11:22:52.252554  9676 net.cpp:367] scale3c_branch2c -> res3c_branch2c (in-place)
I0228 11:22:52.252590  9676 layer_factory.hpp:77] Creating layer scale3c_branch2c
I0228 11:22:52.252681  9676 net.cpp:122] Setting up scale3c_branch2c
I0228 11:22:52.252687  9676 net.cpp:129] Top shape: 8 512 28 28 (3211264)
I0228 11:22:52.252691  9676 net.cpp:137] Memory required for data: 1245970432
I0228 11:22:52.252697  9676 layer_factory.hpp:77] Creating layer res3c
I0228 11:22:52.252703  9676 net.cpp:84] Creating Layer res3c
I0228 11:22:52.252707  9676 net.cpp:406] res3c <- res3b_res3b_relu_0_split_1
I0228 11:22:52.252712  9676 net.cpp:406] res3c <- res3c_branch2c
I0228 11:22:52.252717  9676 net.cpp:380] res3c -> res3c
I0228 11:22:52.252737  9676 net.cpp:122] Setting up res3c
I0228 11:22:52.252743  9676 net.cpp:129] Top shape: 8 512 28 28 (3211264)
I0228 11:22:52.252748  9676 net.cpp:137] Memory required for data: 1258815488
I0228 11:22:52.252750  9676 layer_factory.hpp:77] Creating layer res3c_relu
I0228 11:22:52.252755  9676 net.cpp:84] Creating Layer res3c_relu
I0228 11:22:52.252759  9676 net.cpp:406] res3c_relu <- res3c
I0228 11:22:52.252764  9676 net.cpp:367] res3c_relu -> res3c (in-place)
I0228 11:22:52.253145  9676 net.cpp:122] Setting up res3c_relu
I0228 11:22:52.253159  9676 net.cpp:129] Top shape: 8 512 28 28 (3211264)
I0228 11:22:52.253161  9676 net.cpp:137] Memory required for data: 1271660544
I0228 11:22:52.253167  9676 layer_factory.hpp:77] Creating layer res3c_res3c_relu_0_split
I0228 11:22:52.253175  9676 net.cpp:84] Creating Layer res3c_res3c_relu_0_split
I0228 11:22:52.253178  9676 net.cpp:406] res3c_res3c_relu_0_split <- res3c
I0228 11:22:52.253183  9676 net.cpp:380] res3c_res3c_relu_0_split -> res3c_res3c_relu_0_split_0
I0228 11:22:52.253191  9676 net.cpp:380] res3c_res3c_relu_0_split -> res3c_res3c_relu_0_split_1
I0228 11:22:52.253227  9676 net.cpp:122] Setting up res3c_res3c_relu_0_split
I0228 11:22:52.253233  9676 net.cpp:129] Top shape: 8 512 28 28 (3211264)
I0228 11:22:52.253238  9676 net.cpp:129] Top shape: 8 512 28 28 (3211264)
I0228 11:22:52.253242  9676 net.cpp:137] Memory required for data: 1297350656
I0228 11:22:52.253245  9676 layer_factory.hpp:77] Creating layer res3d_branch2a
I0228 11:22:52.253253  9676 net.cpp:84] Creating Layer res3d_branch2a
I0228 11:22:52.253260  9676 net.cpp:406] res3d_branch2a <- res3c_res3c_relu_0_split_0
I0228 11:22:52.253268  9676 net.cpp:380] res3d_branch2a -> res3d_branch2a
I0228 11:22:52.255043  9676 net.cpp:122] Setting up res3d_branch2a
I0228 11:22:52.255058  9676 net.cpp:129] Top shape: 8 128 28 28 (802816)
I0228 11:22:52.255060  9676 net.cpp:137] Memory required for data: 1300561920
I0228 11:22:52.255069  9676 layer_factory.hpp:77] Creating layer bn3d_branch2a
I0228 11:22:52.255075  9676 net.cpp:84] Creating Layer bn3d_branch2a
I0228 11:22:52.255079  9676 net.cpp:406] bn3d_branch2a <- res3d_branch2a
I0228 11:22:52.255085  9676 net.cpp:367] bn3d_branch2a -> res3d_branch2a (in-place)
I0228 11:22:52.255249  9676 net.cpp:122] Setting up bn3d_branch2a
I0228 11:22:52.255256  9676 net.cpp:129] Top shape: 8 128 28 28 (802816)
I0228 11:22:52.255259  9676 net.cpp:137] Memory required for data: 1303773184
I0228 11:22:52.255291  9676 layer_factory.hpp:77] Creating layer scale3d_branch2a
I0228 11:22:52.255300  9676 net.cpp:84] Creating Layer scale3d_branch2a
I0228 11:22:52.255303  9676 net.cpp:406] scale3d_branch2a <- res3d_branch2a
I0228 11:22:52.255308  9676 net.cpp:367] scale3d_branch2a -> res3d_branch2a (in-place)
I0228 11:22:52.255347  9676 layer_factory.hpp:77] Creating layer scale3d_branch2a
I0228 11:22:52.255442  9676 net.cpp:122] Setting up scale3d_branch2a
I0228 11:22:52.255448  9676 net.cpp:129] Top shape: 8 128 28 28 (802816)
I0228 11:22:52.255452  9676 net.cpp:137] Memory required for data: 1306984448
I0228 11:22:52.255458  9676 layer_factory.hpp:77] Creating layer res3d_branch2a_relu
I0228 11:22:52.255465  9676 net.cpp:84] Creating Layer res3d_branch2a_relu
I0228 11:22:52.255468  9676 net.cpp:406] res3d_branch2a_relu <- res3d_branch2a
I0228 11:22:52.255472  9676 net.cpp:367] res3d_branch2a_relu -> res3d_branch2a (in-place)
I0228 11:22:52.255622  9676 net.cpp:122] Setting up res3d_branch2a_relu
I0228 11:22:52.255631  9676 net.cpp:129] Top shape: 8 128 28 28 (802816)
I0228 11:22:52.255635  9676 net.cpp:137] Memory required for data: 1310195712
I0228 11:22:52.255638  9676 layer_factory.hpp:77] Creating layer res3d_branch2b
I0228 11:22:52.255645  9676 net.cpp:84] Creating Layer res3d_branch2b
I0228 11:22:52.255650  9676 net.cpp:406] res3d_branch2b <- res3d_branch2a
I0228 11:22:52.255656  9676 net.cpp:380] res3d_branch2b -> res3d_branch2b
I0228 11:22:52.256796  9676 net.cpp:122] Setting up res3d_branch2b
I0228 11:22:52.256810  9676 net.cpp:129] Top shape: 8 128 28 28 (802816)
I0228 11:22:52.256814  9676 net.cpp:137] Memory required for data: 1313406976
I0228 11:22:52.256824  9676 layer_factory.hpp:77] Creating layer bn3d_branch2b
I0228 11:22:52.256830  9676 net.cpp:84] Creating Layer bn3d_branch2b
I0228 11:22:52.256834  9676 net.cpp:406] bn3d_branch2b <- res3d_branch2b
I0228 11:22:52.256841  9676 net.cpp:367] bn3d_branch2b -> res3d_branch2b (in-place)
I0228 11:22:52.257009  9676 net.cpp:122] Setting up bn3d_branch2b
I0228 11:22:52.257017  9676 net.cpp:129] Top shape: 8 128 28 28 (802816)
I0228 11:22:52.257020  9676 net.cpp:137] Memory required for data: 1316618240
I0228 11:22:52.257028  9676 layer_factory.hpp:77] Creating layer scale3d_branch2b
I0228 11:22:52.257035  9676 net.cpp:84] Creating Layer scale3d_branch2b
I0228 11:22:52.257038  9676 net.cpp:406] scale3d_branch2b <- res3d_branch2b
I0228 11:22:52.257045  9676 net.cpp:367] scale3d_branch2b -> res3d_branch2b (in-place)
I0228 11:22:52.257079  9676 layer_factory.hpp:77] Creating layer scale3d_branch2b
I0228 11:22:52.257174  9676 net.cpp:122] Setting up scale3d_branch2b
I0228 11:22:52.257179  9676 net.cpp:129] Top shape: 8 128 28 28 (802816)
I0228 11:22:52.257182  9676 net.cpp:137] Memory required for data: 1319829504
I0228 11:22:52.257189  9676 layer_factory.hpp:77] Creating layer res3d_branch2b_relu
I0228 11:22:52.257195  9676 net.cpp:84] Creating Layer res3d_branch2b_relu
I0228 11:22:52.257200  9676 net.cpp:406] res3d_branch2b_relu <- res3d_branch2b
I0228 11:22:52.257203  9676 net.cpp:367] res3d_branch2b_relu -> res3d_branch2b (in-place)
I0228 11:22:52.257364  9676 net.cpp:122] Setting up res3d_branch2b_relu
I0228 11:22:52.257376  9676 net.cpp:129] Top shape: 8 128 28 28 (802816)
I0228 11:22:52.257380  9676 net.cpp:137] Memory required for data: 1323040768
I0228 11:22:52.257385  9676 layer_factory.hpp:77] Creating layer res3d_branch2c
I0228 11:22:52.257392  9676 net.cpp:84] Creating Layer res3d_branch2c
I0228 11:22:52.257396  9676 net.cpp:406] res3d_branch2c <- res3d_branch2b
I0228 11:22:52.257402  9676 net.cpp:380] res3d_branch2c -> res3d_branch2c
I0228 11:22:52.258332  9676 net.cpp:122] Setting up res3d_branch2c
I0228 11:22:52.258347  9676 net.cpp:129] Top shape: 8 512 28 28 (3211264)
I0228 11:22:52.258350  9676 net.cpp:137] Memory required for data: 1335885824
I0228 11:22:52.258358  9676 layer_factory.hpp:77] Creating layer bn3d_branch2c
I0228 11:22:52.258365  9676 net.cpp:84] Creating Layer bn3d_branch2c
I0228 11:22:52.258369  9676 net.cpp:406] bn3d_branch2c <- res3d_branch2c
I0228 11:22:52.258376  9676 net.cpp:367] bn3d_branch2c -> res3d_branch2c (in-place)
I0228 11:22:52.258605  9676 net.cpp:122] Setting up bn3d_branch2c
I0228 11:22:52.258612  9676 net.cpp:129] Top shape: 8 512 28 28 (3211264)
I0228 11:22:52.258616  9676 net.cpp:137] Memory required for data: 1348730880
I0228 11:22:52.258632  9676 layer_factory.hpp:77] Creating layer scale3d_branch2c
I0228 11:22:52.258639  9676 net.cpp:84] Creating Layer scale3d_branch2c
I0228 11:22:52.258643  9676 net.cpp:406] scale3d_branch2c <- res3d_branch2c
I0228 11:22:52.258649  9676 net.cpp:367] scale3d_branch2c -> res3d_branch2c (in-place)
I0228 11:22:52.258689  9676 layer_factory.hpp:77] Creating layer scale3d_branch2c
I0228 11:22:52.258803  9676 net.cpp:122] Setting up scale3d_branch2c
I0228 11:22:52.258810  9676 net.cpp:129] Top shape: 8 512 28 28 (3211264)
I0228 11:22:52.258815  9676 net.cpp:137] Memory required for data: 1361575936
I0228 11:22:52.258823  9676 layer_factory.hpp:77] Creating layer res3d
I0228 11:22:52.258829  9676 net.cpp:84] Creating Layer res3d
I0228 11:22:52.258833  9676 net.cpp:406] res3d <- res3c_res3c_relu_0_split_1
I0228 11:22:52.258839  9676 net.cpp:406] res3d <- res3d_branch2c
I0228 11:22:52.258844  9676 net.cpp:380] res3d -> res3d
I0228 11:22:52.258867  9676 net.cpp:122] Setting up res3d
I0228 11:22:52.258873  9676 net.cpp:129] Top shape: 8 512 28 28 (3211264)
I0228 11:22:52.258877  9676 net.cpp:137] Memory required for data: 1374420992
I0228 11:22:52.258895  9676 layer_factory.hpp:77] Creating layer res3d_relu
I0228 11:22:52.258900  9676 net.cpp:84] Creating Layer res3d_relu
I0228 11:22:52.258904  9676 net.cpp:406] res3d_relu <- res3d
I0228 11:22:52.258909  9676 net.cpp:367] res3d_relu -> res3d (in-place)
I0228 11:22:52.259058  9676 net.cpp:122] Setting up res3d_relu
I0228 11:22:52.259066  9676 net.cpp:129] Top shape: 8 512 28 28 (3211264)
I0228 11:22:52.259069  9676 net.cpp:137] Memory required for data: 1387266048
I0228 11:22:52.259073  9676 layer_factory.hpp:77] Creating layer res3d_res3d_relu_0_split
I0228 11:22:52.259079  9676 net.cpp:84] Creating Layer res3d_res3d_relu_0_split
I0228 11:22:52.259083  9676 net.cpp:406] res3d_res3d_relu_0_split <- res3d
I0228 11:22:52.259088  9676 net.cpp:380] res3d_res3d_relu_0_split -> res3d_res3d_relu_0_split_0
I0228 11:22:52.259094  9676 net.cpp:380] res3d_res3d_relu_0_split -> res3d_res3d_relu_0_split_1
I0228 11:22:52.259130  9676 net.cpp:122] Setting up res3d_res3d_relu_0_split
I0228 11:22:52.259135  9676 net.cpp:129] Top shape: 8 512 28 28 (3211264)
I0228 11:22:52.259140  9676 net.cpp:129] Top shape: 8 512 28 28 (3211264)
I0228 11:22:52.259143  9676 net.cpp:137] Memory required for data: 1412956160
I0228 11:22:52.259146  9676 layer_factory.hpp:77] Creating layer res4a_branch1
I0228 11:22:52.259155  9676 net.cpp:84] Creating Layer res4a_branch1
I0228 11:22:52.259158  9676 net.cpp:406] res4a_branch1 <- res3d_res3d_relu_0_split_0
I0228 11:22:52.259165  9676 net.cpp:380] res4a_branch1 -> res4a_branch1
I0228 11:22:52.261194  9676 net.cpp:122] Setting up res4a_branch1
I0228 11:22:52.261209  9676 net.cpp:129] Top shape: 8 1024 14 14 (1605632)
I0228 11:22:52.261216  9676 net.cpp:137] Memory required for data: 1419378688
I0228 11:22:52.261225  9676 layer_factory.hpp:77] Creating layer bn4a_branch1
I0228 11:22:52.261234  9676 net.cpp:84] Creating Layer bn4a_branch1
I0228 11:22:52.261237  9676 net.cpp:406] bn4a_branch1 <- res4a_branch1
I0228 11:22:52.261243  9676 net.cpp:367] bn4a_branch1 -> res4a_branch1 (in-place)
I0228 11:22:52.261500  9676 net.cpp:122] Setting up bn4a_branch1
I0228 11:22:52.261509  9676 net.cpp:129] Top shape: 8 1024 14 14 (1605632)
I0228 11:22:52.261513  9676 net.cpp:137] Memory required for data: 1425801216
I0228 11:22:52.261523  9676 layer_factory.hpp:77] Creating layer scale4a_branch1
I0228 11:22:52.261531  9676 net.cpp:84] Creating Layer scale4a_branch1
I0228 11:22:52.261535  9676 net.cpp:406] scale4a_branch1 <- res4a_branch1
I0228 11:22:52.261541  9676 net.cpp:367] scale4a_branch1 -> res4a_branch1 (in-place)
I0228 11:22:52.261580  9676 layer_factory.hpp:77] Creating layer scale4a_branch1
I0228 11:22:52.261730  9676 net.cpp:122] Setting up scale4a_branch1
I0228 11:22:52.261739  9676 net.cpp:129] Top shape: 8 1024 14 14 (1605632)
I0228 11:22:52.261742  9676 net.cpp:137] Memory required for data: 1432223744
I0228 11:22:52.261750  9676 layer_factory.hpp:77] Creating layer res4a_branch2a
I0228 11:22:52.261759  9676 net.cpp:84] Creating Layer res4a_branch2a
I0228 11:22:52.261765  9676 net.cpp:406] res4a_branch2a <- res3d_res3d_relu_0_split_1
I0228 11:22:52.261771  9676 net.cpp:380] res4a_branch2a -> res4a_branch2a
I0228 11:22:52.262904  9676 net.cpp:122] Setting up res4a_branch2a
I0228 11:22:52.262918  9676 net.cpp:129] Top shape: 8 256 14 14 (401408)
I0228 11:22:52.262922  9676 net.cpp:137] Memory required for data: 1433829376
I0228 11:22:52.262930  9676 layer_factory.hpp:77] Creating layer bn4a_branch2a
I0228 11:22:52.262938  9676 net.cpp:84] Creating Layer bn4a_branch2a
I0228 11:22:52.262943  9676 net.cpp:406] bn4a_branch2a <- res4a_branch2a
I0228 11:22:52.262949  9676 net.cpp:367] bn4a_branch2a -> res4a_branch2a (in-place)
I0228 11:22:52.263113  9676 net.cpp:122] Setting up bn4a_branch2a
I0228 11:22:52.263120  9676 net.cpp:129] Top shape: 8 256 14 14 (401408)
I0228 11:22:52.263123  9676 net.cpp:137] Memory required for data: 1435435008
I0228 11:22:52.263131  9676 layer_factory.hpp:77] Creating layer scale4a_branch2a
I0228 11:22:52.263137  9676 net.cpp:84] Creating Layer scale4a_branch2a
I0228 11:22:52.263141  9676 net.cpp:406] scale4a_branch2a <- res4a_branch2a
I0228 11:22:52.263146  9676 net.cpp:367] scale4a_branch2a -> res4a_branch2a (in-place)
I0228 11:22:52.263182  9676 layer_factory.hpp:77] Creating layer scale4a_branch2a
I0228 11:22:52.263273  9676 net.cpp:122] Setting up scale4a_branch2a
I0228 11:22:52.263279  9676 net.cpp:129] Top shape: 8 256 14 14 (401408)
I0228 11:22:52.263283  9676 net.cpp:137] Memory required for data: 1437040640
I0228 11:22:52.263290  9676 layer_factory.hpp:77] Creating layer res4a_branch2a_relu
I0228 11:22:52.263295  9676 net.cpp:84] Creating Layer res4a_branch2a_relu
I0228 11:22:52.263299  9676 net.cpp:406] res4a_branch2a_relu <- res4a_branch2a
I0228 11:22:52.263304  9676 net.cpp:367] res4a_branch2a_relu -> res4a_branch2a (in-place)
I0228 11:22:52.263454  9676 net.cpp:122] Setting up res4a_branch2a_relu
I0228 11:22:52.263463  9676 net.cpp:129] Top shape: 8 256 14 14 (401408)
I0228 11:22:52.263466  9676 net.cpp:137] Memory required for data: 1438646272
I0228 11:22:52.263471  9676 layer_factory.hpp:77] Creating layer res4a_branch2b
I0228 11:22:52.263479  9676 net.cpp:84] Creating Layer res4a_branch2b
I0228 11:22:52.263484  9676 net.cpp:406] res4a_branch2b <- res4a_branch2a
I0228 11:22:52.263489  9676 net.cpp:380] res4a_branch2b -> res4a_branch2b
I0228 11:22:52.265794  9676 net.cpp:122] Setting up res4a_branch2b
I0228 11:22:52.265807  9676 net.cpp:129] Top shape: 8 256 14 14 (401408)
I0228 11:22:52.265811  9676 net.cpp:137] Memory required for data: 1440251904
I0228 11:22:52.265818  9676 layer_factory.hpp:77] Creating layer bn4a_branch2b
I0228 11:22:52.265826  9676 net.cpp:84] Creating Layer bn4a_branch2b
I0228 11:22:52.265831  9676 net.cpp:406] bn4a_branch2b <- res4a_branch2b
I0228 11:22:52.265842  9676 net.cpp:367] bn4a_branch2b -> res4a_branch2b (in-place)
I0228 11:22:52.266023  9676 net.cpp:122] Setting up bn4a_branch2b
I0228 11:22:52.266031  9676 net.cpp:129] Top shape: 8 256 14 14 (401408)
I0228 11:22:52.266036  9676 net.cpp:137] Memory required for data: 1441857536
I0228 11:22:52.266043  9676 layer_factory.hpp:77] Creating layer scale4a_branch2b
I0228 11:22:52.266050  9676 net.cpp:84] Creating Layer scale4a_branch2b
I0228 11:22:52.266055  9676 net.cpp:406] scale4a_branch2b <- res4a_branch2b
I0228 11:22:52.266060  9676 net.cpp:367] scale4a_branch2b -> res4a_branch2b (in-place)
I0228 11:22:52.266100  9676 layer_factory.hpp:77] Creating layer scale4a_branch2b
I0228 11:22:52.266233  9676 net.cpp:122] Setting up scale4a_branch2b
I0228 11:22:52.266242  9676 net.cpp:129] Top shape: 8 256 14 14 (401408)
I0228 11:22:52.266247  9676 net.cpp:137] Memory required for data: 1443463168
I0228 11:22:52.266254  9676 layer_factory.hpp:77] Creating layer res4a_branch2b_relu
I0228 11:22:52.266260  9676 net.cpp:84] Creating Layer res4a_branch2b_relu
I0228 11:22:52.266264  9676 net.cpp:406] res4a_branch2b_relu <- res4a_branch2b
I0228 11:22:52.266273  9676 net.cpp:367] res4a_branch2b_relu -> res4a_branch2b (in-place)
I0228 11:22:52.266464  9676 net.cpp:122] Setting up res4a_branch2b_relu
I0228 11:22:52.266474  9676 net.cpp:129] Top shape: 8 256 14 14 (401408)
I0228 11:22:52.266477  9676 net.cpp:137] Memory required for data: 1445068800
I0228 11:22:52.266481  9676 layer_factory.hpp:77] Creating layer res4a_branch2c
I0228 11:22:52.266490  9676 net.cpp:84] Creating Layer res4a_branch2c
I0228 11:22:52.266494  9676 net.cpp:406] res4a_branch2c <- res4a_branch2b
I0228 11:22:52.266500  9676 net.cpp:380] res4a_branch2c -> res4a_branch2c
I0228 11:22:52.268347  9676 net.cpp:122] Setting up res4a_branch2c
I0228 11:22:52.268362  9676 net.cpp:129] Top shape: 8 1024 14 14 (1605632)
I0228 11:22:52.268365  9676 net.cpp:137] Memory required for data: 1451491328
I0228 11:22:52.268373  9676 layer_factory.hpp:77] Creating layer bn4a_branch2c
I0228 11:22:52.268381  9676 net.cpp:84] Creating Layer bn4a_branch2c
I0228 11:22:52.268385  9676 net.cpp:406] bn4a_branch2c <- res4a_branch2c
I0228 11:22:52.268393  9676 net.cpp:367] bn4a_branch2c -> res4a_branch2c (in-place)
I0228 11:22:52.268573  9676 net.cpp:122] Setting up bn4a_branch2c
I0228 11:22:52.268579  9676 net.cpp:129] Top shape: 8 1024 14 14 (1605632)
I0228 11:22:52.268582  9676 net.cpp:137] Memory required for data: 1457913856
I0228 11:22:52.268592  9676 layer_factory.hpp:77] Creating layer scale4a_branch2c
I0228 11:22:52.268600  9676 net.cpp:84] Creating Layer scale4a_branch2c
I0228 11:22:52.268604  9676 net.cpp:406] scale4a_branch2c <- res4a_branch2c
I0228 11:22:52.268610  9676 net.cpp:367] scale4a_branch2c -> res4a_branch2c (in-place)
I0228 11:22:52.268646  9676 layer_factory.hpp:77] Creating layer scale4a_branch2c
I0228 11:22:52.268752  9676 net.cpp:122] Setting up scale4a_branch2c
I0228 11:22:52.268759  9676 net.cpp:129] Top shape: 8 1024 14 14 (1605632)
I0228 11:22:52.268762  9676 net.cpp:137] Memory required for data: 1464336384
I0228 11:22:52.268769  9676 layer_factory.hpp:77] Creating layer res4a
I0228 11:22:52.268776  9676 net.cpp:84] Creating Layer res4a
I0228 11:22:52.268780  9676 net.cpp:406] res4a <- res4a_branch1
I0228 11:22:52.268786  9676 net.cpp:406] res4a <- res4a_branch2c
I0228 11:22:52.268792  9676 net.cpp:380] res4a -> res4a
I0228 11:22:52.268815  9676 net.cpp:122] Setting up res4a
I0228 11:22:52.268821  9676 net.cpp:129] Top shape: 8 1024 14 14 (1605632)
I0228 11:22:52.268824  9676 net.cpp:137] Memory required for data: 1470758912
I0228 11:22:52.268828  9676 layer_factory.hpp:77] Creating layer res4a_relu
I0228 11:22:52.268836  9676 net.cpp:84] Creating Layer res4a_relu
I0228 11:22:52.268839  9676 net.cpp:406] res4a_relu <- res4a
I0228 11:22:52.268843  9676 net.cpp:367] res4a_relu -> res4a (in-place)
I0228 11:22:52.269248  9676 net.cpp:122] Setting up res4a_relu
I0228 11:22:52.269260  9676 net.cpp:129] Top shape: 8 1024 14 14 (1605632)
I0228 11:22:52.269266  9676 net.cpp:137] Memory required for data: 1477181440
I0228 11:22:52.269271  9676 layer_factory.hpp:77] Creating layer res4a_res4a_relu_0_split
I0228 11:22:52.269299  9676 net.cpp:84] Creating Layer res4a_res4a_relu_0_split
I0228 11:22:52.269304  9676 net.cpp:406] res4a_res4a_relu_0_split <- res4a
I0228 11:22:52.269310  9676 net.cpp:380] res4a_res4a_relu_0_split -> res4a_res4a_relu_0_split_0
I0228 11:22:52.269318  9676 net.cpp:380] res4a_res4a_relu_0_split -> res4a_res4a_relu_0_split_1
I0228 11:22:52.269356  9676 net.cpp:122] Setting up res4a_res4a_relu_0_split
I0228 11:22:52.269364  9676 net.cpp:129] Top shape: 8 1024 14 14 (1605632)
I0228 11:22:52.269368  9676 net.cpp:129] Top shape: 8 1024 14 14 (1605632)
I0228 11:22:52.269371  9676 net.cpp:137] Memory required for data: 1490026496
I0228 11:22:52.269377  9676 layer_factory.hpp:77] Creating layer res4b_branch2a
I0228 11:22:52.269387  9676 net.cpp:84] Creating Layer res4b_branch2a
I0228 11:22:52.269390  9676 net.cpp:406] res4b_branch2a <- res4a_res4a_relu_0_split_0
I0228 11:22:52.269397  9676 net.cpp:380] res4b_branch2a -> res4b_branch2a
I0228 11:22:52.270246  9676 net.cpp:122] Setting up res4b_branch2a
I0228 11:22:52.270258  9676 net.cpp:129] Top shape: 8 256 14 14 (401408)
I0228 11:22:52.270262  9676 net.cpp:137] Memory required for data: 1491632128
I0228 11:22:52.270268  9676 layer_factory.hpp:77] Creating layer bn4b_branch2a
I0228 11:22:52.270277  9676 net.cpp:84] Creating Layer bn4b_branch2a
I0228 11:22:52.270282  9676 net.cpp:406] bn4b_branch2a <- res4b_branch2a
I0228 11:22:52.270289  9676 net.cpp:367] bn4b_branch2a -> res4b_branch2a (in-place)
I0228 11:22:52.270488  9676 net.cpp:122] Setting up bn4b_branch2a
I0228 11:22:52.270494  9676 net.cpp:129] Top shape: 8 256 14 14 (401408)
I0228 11:22:52.270498  9676 net.cpp:137] Memory required for data: 1493237760
I0228 11:22:52.270507  9676 layer_factory.hpp:77] Creating layer scale4b_branch2a
I0228 11:22:52.270515  9676 net.cpp:84] Creating Layer scale4b_branch2a
I0228 11:22:52.270519  9676 net.cpp:406] scale4b_branch2a <- res4b_branch2a
I0228 11:22:52.270524  9676 net.cpp:367] scale4b_branch2a -> res4b_branch2a (in-place)
I0228 11:22:52.270563  9676 layer_factory.hpp:77] Creating layer scale4b_branch2a
I0228 11:22:52.270665  9676 net.cpp:122] Setting up scale4b_branch2a
I0228 11:22:52.270673  9676 net.cpp:129] Top shape: 8 256 14 14 (401408)
I0228 11:22:52.270675  9676 net.cpp:137] Memory required for data: 1494843392
I0228 11:22:52.270683  9676 layer_factory.hpp:77] Creating layer res4b_branch2a_relu
I0228 11:22:52.270689  9676 net.cpp:84] Creating Layer res4b_branch2a_relu
I0228 11:22:52.270694  9676 net.cpp:406] res4b_branch2a_relu <- res4b_branch2a
I0228 11:22:52.270699  9676 net.cpp:367] res4b_branch2a_relu -> res4b_branch2a (in-place)
I0228 11:22:52.271097  9676 net.cpp:122] Setting up res4b_branch2a_relu
I0228 11:22:52.271111  9676 net.cpp:129] Top shape: 8 256 14 14 (401408)
I0228 11:22:52.271116  9676 net.cpp:137] Memory required for data: 1496449024
I0228 11:22:52.271119  9676 layer_factory.hpp:77] Creating layer res4b_branch2b
I0228 11:22:52.271133  9676 net.cpp:84] Creating Layer res4b_branch2b
I0228 11:22:52.271137  9676 net.cpp:406] res4b_branch2b <- res4b_branch2a
I0228 11:22:52.271143  9676 net.cpp:380] res4b_branch2b -> res4b_branch2b
I0228 11:22:52.273543  9676 net.cpp:122] Setting up res4b_branch2b
I0228 11:22:52.273557  9676 net.cpp:129] Top shape: 8 256 14 14 (401408)
I0228 11:22:52.273561  9676 net.cpp:137] Memory required for data: 1498054656
I0228 11:22:52.273569  9676 layer_factory.hpp:77] Creating layer bn4b_branch2b
I0228 11:22:52.273576  9676 net.cpp:84] Creating Layer bn4b_branch2b
I0228 11:22:52.273581  9676 net.cpp:406] bn4b_branch2b <- res4b_branch2b
I0228 11:22:52.273587  9676 net.cpp:367] bn4b_branch2b -> res4b_branch2b (in-place)
I0228 11:22:52.273772  9676 net.cpp:122] Setting up bn4b_branch2b
I0228 11:22:52.273780  9676 net.cpp:129] Top shape: 8 256 14 14 (401408)
I0228 11:22:52.273783  9676 net.cpp:137] Memory required for data: 1499660288
I0228 11:22:52.273797  9676 layer_factory.hpp:77] Creating layer scale4b_branch2b
I0228 11:22:52.273804  9676 net.cpp:84] Creating Layer scale4b_branch2b
I0228 11:22:52.273809  9676 net.cpp:406] scale4b_branch2b <- res4b_branch2b
I0228 11:22:52.273815  9676 net.cpp:367] scale4b_branch2b -> res4b_branch2b (in-place)
I0228 11:22:52.273855  9676 layer_factory.hpp:77] Creating layer scale4b_branch2b
I0228 11:22:52.273957  9676 net.cpp:122] Setting up scale4b_branch2b
I0228 11:22:52.273964  9676 net.cpp:129] Top shape: 8 256 14 14 (401408)
I0228 11:22:52.273968  9676 net.cpp:137] Memory required for data: 1501265920
I0228 11:22:52.273975  9676 layer_factory.hpp:77] Creating layer res4b_branch2b_relu
I0228 11:22:52.273980  9676 net.cpp:84] Creating Layer res4b_branch2b_relu
I0228 11:22:52.273984  9676 net.cpp:406] res4b_branch2b_relu <- res4b_branch2b
I0228 11:22:52.273990  9676 net.cpp:367] res4b_branch2b_relu -> res4b_branch2b (in-place)
I0228 11:22:52.274184  9676 net.cpp:122] Setting up res4b_branch2b_relu
I0228 11:22:52.274194  9676 net.cpp:129] Top shape: 8 256 14 14 (401408)
I0228 11:22:52.274199  9676 net.cpp:137] Memory required for data: 1502871552
I0228 11:22:52.274202  9676 layer_factory.hpp:77] Creating layer res4b_branch2c
I0228 11:22:52.274211  9676 net.cpp:84] Creating Layer res4b_branch2c
I0228 11:22:52.274215  9676 net.cpp:406] res4b_branch2c <- res4b_branch2b
I0228 11:22:52.274222  9676 net.cpp:380] res4b_branch2c -> res4b_branch2c
I0228 11:22:52.276166  9676 net.cpp:122] Setting up res4b_branch2c
I0228 11:22:52.276180  9676 net.cpp:129] Top shape: 8 1024 14 14 (1605632)
I0228 11:22:52.276185  9676 net.cpp:137] Memory required for data: 1509294080
I0228 11:22:52.276192  9676 layer_factory.hpp:77] Creating layer bn4b_branch2c
I0228 11:22:52.276201  9676 net.cpp:84] Creating Layer bn4b_branch2c
I0228 11:22:52.276206  9676 net.cpp:406] bn4b_branch2c <- res4b_branch2c
I0228 11:22:52.276212  9676 net.cpp:367] bn4b_branch2c -> res4b_branch2c (in-place)
I0228 11:22:52.276394  9676 net.cpp:122] Setting up bn4b_branch2c
I0228 11:22:52.276402  9676 net.cpp:129] Top shape: 8 1024 14 14 (1605632)
I0228 11:22:52.276406  9676 net.cpp:137] Memory required for data: 1515716608
I0228 11:22:52.276414  9676 layer_factory.hpp:77] Creating layer scale4b_branch2c
I0228 11:22:52.276422  9676 net.cpp:84] Creating Layer scale4b_branch2c
I0228 11:22:52.276425  9676 net.cpp:406] scale4b_branch2c <- res4b_branch2c
I0228 11:22:52.276430  9676 net.cpp:367] scale4b_branch2c -> res4b_branch2c (in-place)
I0228 11:22:52.276468  9676 layer_factory.hpp:77] Creating layer scale4b_branch2c
I0228 11:22:52.276576  9676 net.cpp:122] Setting up scale4b_branch2c
I0228 11:22:52.276583  9676 net.cpp:129] Top shape: 8 1024 14 14 (1605632)
I0228 11:22:52.276587  9676 net.cpp:137] Memory required for data: 1522139136
I0228 11:22:52.276593  9676 layer_factory.hpp:77] Creating layer res4b
I0228 11:22:52.276604  9676 net.cpp:84] Creating Layer res4b
I0228 11:22:52.276608  9676 net.cpp:406] res4b <- res4a_res4a_relu_0_split_1
I0228 11:22:52.276612  9676 net.cpp:406] res4b <- res4b_branch2c
I0228 11:22:52.276618  9676 net.cpp:380] res4b -> res4b
I0228 11:22:52.276641  9676 net.cpp:122] Setting up res4b
I0228 11:22:52.276648  9676 net.cpp:129] Top shape: 8 1024 14 14 (1605632)
I0228 11:22:52.276651  9676 net.cpp:137] Memory required for data: 1528561664
I0228 11:22:52.276656  9676 layer_factory.hpp:77] Creating layer res4b_relu
I0228 11:22:52.276661  9676 net.cpp:84] Creating Layer res4b_relu
I0228 11:22:52.276665  9676 net.cpp:406] res4b_relu <- res4b
I0228 11:22:52.276674  9676 net.cpp:367] res4b_relu -> res4b (in-place)
I0228 11:22:52.276831  9676 net.cpp:122] Setting up res4b_relu
I0228 11:22:52.276840  9676 net.cpp:129] Top shape: 8 1024 14 14 (1605632)
I0228 11:22:52.276844  9676 net.cpp:137] Memory required for data: 1534984192
I0228 11:22:52.276847  9676 layer_factory.hpp:77] Creating layer res4b_res4b_relu_0_split
I0228 11:22:52.276854  9676 net.cpp:84] Creating Layer res4b_res4b_relu_0_split
I0228 11:22:52.276859  9676 net.cpp:406] res4b_res4b_relu_0_split <- res4b
I0228 11:22:52.276867  9676 net.cpp:380] res4b_res4b_relu_0_split -> res4b_res4b_relu_0_split_0
I0228 11:22:52.276875  9676 net.cpp:380] res4b_res4b_relu_0_split -> res4b_res4b_relu_0_split_1
I0228 11:22:52.276912  9676 net.cpp:122] Setting up res4b_res4b_relu_0_split
I0228 11:22:52.276919  9676 net.cpp:129] Top shape: 8 1024 14 14 (1605632)
I0228 11:22:52.276924  9676 net.cpp:129] Top shape: 8 1024 14 14 (1605632)
I0228 11:22:52.276927  9676 net.cpp:137] Memory required for data: 1547829248
I0228 11:22:52.276931  9676 layer_factory.hpp:77] Creating layer res4c_branch2a
I0228 11:22:52.276939  9676 net.cpp:84] Creating Layer res4c_branch2a
I0228 11:22:52.276943  9676 net.cpp:406] res4c_branch2a <- res4b_res4b_relu_0_split_0
I0228 11:22:52.276950  9676 net.cpp:380] res4c_branch2a -> res4c_branch2a
I0228 11:22:52.278028  9676 net.cpp:122] Setting up res4c_branch2a
I0228 11:22:52.278043  9676 net.cpp:129] Top shape: 8 256 14 14 (401408)
I0228 11:22:52.278045  9676 net.cpp:137] Memory required for data: 1549434880
I0228 11:22:52.278053  9676 layer_factory.hpp:77] Creating layer bn4c_branch2a
I0228 11:22:52.278064  9676 net.cpp:84] Creating Layer bn4c_branch2a
I0228 11:22:52.278069  9676 net.cpp:406] bn4c_branch2a <- res4c_branch2a
I0228 11:22:52.278074  9676 net.cpp:367] bn4c_branch2a -> res4c_branch2a (in-place)
I0228 11:22:52.278295  9676 net.cpp:122] Setting up bn4c_branch2a
I0228 11:22:52.278302  9676 net.cpp:129] Top shape: 8 256 14 14 (401408)
I0228 11:22:52.278306  9676 net.cpp:137] Memory required for data: 1551040512
I0228 11:22:52.278317  9676 layer_factory.hpp:77] Creating layer scale4c_branch2a
I0228 11:22:52.278324  9676 net.cpp:84] Creating Layer scale4c_branch2a
I0228 11:22:52.278328  9676 net.cpp:406] scale4c_branch2a <- res4c_branch2a
I0228 11:22:52.278334  9676 net.cpp:367] scale4c_branch2a -> res4c_branch2a (in-place)
I0228 11:22:52.278378  9676 layer_factory.hpp:77] Creating layer scale4c_branch2a
I0228 11:22:52.278512  9676 net.cpp:122] Setting up scale4c_branch2a
I0228 11:22:52.278518  9676 net.cpp:129] Top shape: 8 256 14 14 (401408)
I0228 11:22:52.278522  9676 net.cpp:137] Memory required for data: 1552646144
I0228 11:22:52.278529  9676 layer_factory.hpp:77] Creating layer res4c_branch2a_relu
I0228 11:22:52.278539  9676 net.cpp:84] Creating Layer res4c_branch2a_relu
I0228 11:22:52.278543  9676 net.cpp:406] res4c_branch2a_relu <- res4c_branch2a
I0228 11:22:52.278548  9676 net.cpp:367] res4c_branch2a_relu -> res4c_branch2a (in-place)
I0228 11:22:52.278713  9676 net.cpp:122] Setting up res4c_branch2a_relu
I0228 11:22:52.278722  9676 net.cpp:129] Top shape: 8 256 14 14 (401408)
I0228 11:22:52.278725  9676 net.cpp:137] Memory required for data: 1554251776
I0228 11:22:52.278729  9676 layer_factory.hpp:77] Creating layer res4c_branch2b
I0228 11:22:52.278738  9676 net.cpp:84] Creating Layer res4c_branch2b
I0228 11:22:52.278743  9676 net.cpp:406] res4c_branch2b <- res4c_branch2a
I0228 11:22:52.278748  9676 net.cpp:380] res4c_branch2b -> res4c_branch2b
I0228 11:22:52.281314  9676 net.cpp:122] Setting up res4c_branch2b
I0228 11:22:52.281332  9676 net.cpp:129] Top shape: 8 256 14 14 (401408)
I0228 11:22:52.281335  9676 net.cpp:137] Memory required for data: 1555857408
I0228 11:22:52.281343  9676 layer_factory.hpp:77] Creating layer bn4c_branch2b
I0228 11:22:52.281352  9676 net.cpp:84] Creating Layer bn4c_branch2b
I0228 11:22:52.281358  9676 net.cpp:406] bn4c_branch2b <- res4c_branch2b
I0228 11:22:52.281364  9676 net.cpp:367] bn4c_branch2b -> res4c_branch2b (in-place)
I0228 11:22:52.281550  9676 net.cpp:122] Setting up bn4c_branch2b
I0228 11:22:52.281558  9676 net.cpp:129] Top shape: 8 256 14 14 (401408)
I0228 11:22:52.281561  9676 net.cpp:137] Memory required for data: 1557463040
I0228 11:22:52.281571  9676 layer_factory.hpp:77] Creating layer scale4c_branch2b
I0228 11:22:52.281579  9676 net.cpp:84] Creating Layer scale4c_branch2b
I0228 11:22:52.281582  9676 net.cpp:406] scale4c_branch2b <- res4c_branch2b
I0228 11:22:52.281587  9676 net.cpp:367] scale4c_branch2b -> res4c_branch2b (in-place)
I0228 11:22:52.281632  9676 layer_factory.hpp:77] Creating layer scale4c_branch2b
I0228 11:22:52.281736  9676 net.cpp:122] Setting up scale4c_branch2b
I0228 11:22:52.281744  9676 net.cpp:129] Top shape: 8 256 14 14 (401408)
I0228 11:22:52.281747  9676 net.cpp:137] Memory required for data: 1559068672
I0228 11:22:52.281754  9676 layer_factory.hpp:77] Creating layer res4c_branch2b_relu
I0228 11:22:52.281761  9676 net.cpp:84] Creating Layer res4c_branch2b_relu
I0228 11:22:52.281765  9676 net.cpp:406] res4c_branch2b_relu <- res4c_branch2b
I0228 11:22:52.281770  9676 net.cpp:367] res4c_branch2b_relu -> res4c_branch2b (in-place)
I0228 11:22:52.281939  9676 net.cpp:122] Setting up res4c_branch2b_relu
I0228 11:22:52.281949  9676 net.cpp:129] Top shape: 8 256 14 14 (401408)
I0228 11:22:52.281952  9676 net.cpp:137] Memory required for data: 1560674304
I0228 11:22:52.281957  9676 layer_factory.hpp:77] Creating layer res4c_branch2c
I0228 11:22:52.281966  9676 net.cpp:84] Creating Layer res4c_branch2c
I0228 11:22:52.281970  9676 net.cpp:406] res4c_branch2c <- res4c_branch2b
I0228 11:22:52.281977  9676 net.cpp:380] res4c_branch2c -> res4c_branch2c
I0228 11:22:52.283895  9676 net.cpp:122] Setting up res4c_branch2c
I0228 11:22:52.283908  9676 net.cpp:129] Top shape: 8 1024 14 14 (1605632)
I0228 11:22:52.283912  9676 net.cpp:137] Memory required for data: 1567096832
I0228 11:22:52.283921  9676 layer_factory.hpp:77] Creating layer bn4c_branch2c
I0228 11:22:52.283928  9676 net.cpp:84] Creating Layer bn4c_branch2c
I0228 11:22:52.283933  9676 net.cpp:406] bn4c_branch2c <- res4c_branch2c
I0228 11:22:52.283939  9676 net.cpp:367] bn4c_branch2c -> res4c_branch2c (in-place)
I0228 11:22:52.284131  9676 net.cpp:122] Setting up bn4c_branch2c
I0228 11:22:52.284138  9676 net.cpp:129] Top shape: 8 1024 14 14 (1605632)
I0228 11:22:52.284142  9676 net.cpp:137] Memory required for data: 1573519360
I0228 11:22:52.284150  9676 layer_factory.hpp:77] Creating layer scale4c_branch2c
I0228 11:22:52.284157  9676 net.cpp:84] Creating Layer scale4c_branch2c
I0228 11:22:52.284162  9676 net.cpp:406] scale4c_branch2c <- res4c_branch2c
I0228 11:22:52.284166  9676 net.cpp:367] scale4c_branch2c -> res4c_branch2c (in-place)
I0228 11:22:52.284205  9676 layer_factory.hpp:77] Creating layer scale4c_branch2c
I0228 11:22:52.284314  9676 net.cpp:122] Setting up scale4c_branch2c
I0228 11:22:52.284322  9676 net.cpp:129] Top shape: 8 1024 14 14 (1605632)
I0228 11:22:52.284325  9676 net.cpp:137] Memory required for data: 1579941888
I0228 11:22:52.284333  9676 layer_factory.hpp:77] Creating layer res4c
I0228 11:22:52.284339  9676 net.cpp:84] Creating Layer res4c
I0228 11:22:52.284343  9676 net.cpp:406] res4c <- res4b_res4b_relu_0_split_1
I0228 11:22:52.284349  9676 net.cpp:406] res4c <- res4c_branch2c
I0228 11:22:52.284359  9676 net.cpp:380] res4c -> res4c
I0228 11:22:52.284382  9676 net.cpp:122] Setting up res4c
I0228 11:22:52.284389  9676 net.cpp:129] Top shape: 8 1024 14 14 (1605632)
I0228 11:22:52.284392  9676 net.cpp:137] Memory required for data: 1586364416
I0228 11:22:52.284395  9676 layer_factory.hpp:77] Creating layer res4c_relu
I0228 11:22:52.284404  9676 net.cpp:84] Creating Layer res4c_relu
I0228 11:22:52.284406  9676 net.cpp:406] res4c_relu <- res4c
I0228 11:22:52.284411  9676 net.cpp:367] res4c_relu -> res4c (in-place)
I0228 11:22:52.284821  9676 net.cpp:122] Setting up res4c_relu
I0228 11:22:52.284834  9676 net.cpp:129] Top shape: 8 1024 14 14 (1605632)
I0228 11:22:52.284837  9676 net.cpp:137] Memory required for data: 1592786944
I0228 11:22:52.284842  9676 layer_factory.hpp:77] Creating layer res4c_res4c_relu_0_split
I0228 11:22:52.284849  9676 net.cpp:84] Creating Layer res4c_res4c_relu_0_split
I0228 11:22:52.284854  9676 net.cpp:406] res4c_res4c_relu_0_split <- res4c
I0228 11:22:52.284862  9676 net.cpp:380] res4c_res4c_relu_0_split -> res4c_res4c_relu_0_split_0
I0228 11:22:52.284868  9676 net.cpp:380] res4c_res4c_relu_0_split -> res4c_res4c_relu_0_split_1
I0228 11:22:52.284909  9676 net.cpp:122] Setting up res4c_res4c_relu_0_split
I0228 11:22:52.284917  9676 net.cpp:129] Top shape: 8 1024 14 14 (1605632)
I0228 11:22:52.284925  9676 net.cpp:129] Top shape: 8 1024 14 14 (1605632)
I0228 11:22:52.284929  9676 net.cpp:137] Memory required for data: 1605632000
I0228 11:22:52.284934  9676 layer_factory.hpp:77] Creating layer res4d_branch2a
I0228 11:22:52.284941  9676 net.cpp:84] Creating Layer res4d_branch2a
I0228 11:22:52.284945  9676 net.cpp:406] res4d_branch2a <- res4c_res4c_relu_0_split_0
I0228 11:22:52.284952  9676 net.cpp:380] res4d_branch2a -> res4d_branch2a
I0228 11:22:52.285769  9676 net.cpp:122] Setting up res4d_branch2a
I0228 11:22:52.285781  9676 net.cpp:129] Top shape: 8 256 14 14 (401408)
I0228 11:22:52.285784  9676 net.cpp:137] Memory required for data: 1607237632
I0228 11:22:52.285791  9676 layer_factory.hpp:77] Creating layer bn4d_branch2a
I0228 11:22:52.285799  9676 net.cpp:84] Creating Layer bn4d_branch2a
I0228 11:22:52.285804  9676 net.cpp:406] bn4d_branch2a <- res4d_branch2a
I0228 11:22:52.285810  9676 net.cpp:367] bn4d_branch2a -> res4d_branch2a (in-place)
I0228 11:22:52.285992  9676 net.cpp:122] Setting up bn4d_branch2a
I0228 11:22:52.286000  9676 net.cpp:129] Top shape: 8 256 14 14 (401408)
I0228 11:22:52.286002  9676 net.cpp:137] Memory required for data: 1608843264
I0228 11:22:52.286010  9676 layer_factory.hpp:77] Creating layer scale4d_branch2a
I0228 11:22:52.286017  9676 net.cpp:84] Creating Layer scale4d_branch2a
I0228 11:22:52.286020  9676 net.cpp:406] scale4d_branch2a <- res4d_branch2a
I0228 11:22:52.286027  9676 net.cpp:367] scale4d_branch2a -> res4d_branch2a (in-place)
I0228 11:22:52.286067  9676 layer_factory.hpp:77] Creating layer scale4d_branch2a
I0228 11:22:52.286201  9676 net.cpp:122] Setting up scale4d_branch2a
I0228 11:22:52.286211  9676 net.cpp:129] Top shape: 8 256 14 14 (401408)
I0228 11:22:52.286214  9676 net.cpp:137] Memory required for data: 1610448896
I0228 11:22:52.286221  9676 layer_factory.hpp:77] Creating layer res4d_branch2a_relu
I0228 11:22:52.286227  9676 net.cpp:84] Creating Layer res4d_branch2a_relu
I0228 11:22:52.286231  9676 net.cpp:406] res4d_branch2a_relu <- res4d_branch2a
I0228 11:22:52.286240  9676 net.cpp:367] res4d_branch2a_relu -> res4d_branch2a (in-place)
I0228 11:22:52.286674  9676 net.cpp:122] Setting up res4d_branch2a_relu
I0228 11:22:52.286686  9676 net.cpp:129] Top shape: 8 256 14 14 (401408)
I0228 11:22:52.286690  9676 net.cpp:137] Memory required for data: 1612054528
I0228 11:22:52.286695  9676 layer_factory.hpp:77] Creating layer res4d_branch2b
I0228 11:22:52.286705  9676 net.cpp:84] Creating Layer res4d_branch2b
I0228 11:22:52.286710  9676 net.cpp:406] res4d_branch2b <- res4d_branch2a
I0228 11:22:52.286718  9676 net.cpp:380] res4d_branch2b -> res4d_branch2b
I0228 11:22:52.289108  9676 net.cpp:122] Setting up res4d_branch2b
I0228 11:22:52.289122  9676 net.cpp:129] Top shape: 8 256 14 14 (401408)
I0228 11:22:52.289129  9676 net.cpp:137] Memory required for data: 1613660160
I0228 11:22:52.289135  9676 layer_factory.hpp:77] Creating layer bn4d_branch2b
I0228 11:22:52.289144  9676 net.cpp:84] Creating Layer bn4d_branch2b
I0228 11:22:52.289147  9676 net.cpp:406] bn4d_branch2b <- res4d_branch2b
I0228 11:22:52.289155  9676 net.cpp:367] bn4d_branch2b -> res4d_branch2b (in-place)
I0228 11:22:52.289342  9676 net.cpp:122] Setting up bn4d_branch2b
I0228 11:22:52.289350  9676 net.cpp:129] Top shape: 8 256 14 14 (401408)
I0228 11:22:52.289355  9676 net.cpp:137] Memory required for data: 1615265792
I0228 11:22:52.289362  9676 layer_factory.hpp:77] Creating layer scale4d_branch2b
I0228 11:22:52.289369  9676 net.cpp:84] Creating Layer scale4d_branch2b
I0228 11:22:52.289373  9676 net.cpp:406] scale4d_branch2b <- res4d_branch2b
I0228 11:22:52.289379  9676 net.cpp:367] scale4d_branch2b -> res4d_branch2b (in-place)
I0228 11:22:52.289419  9676 layer_factory.hpp:77] Creating layer scale4d_branch2b
I0228 11:22:52.289523  9676 net.cpp:122] Setting up scale4d_branch2b
I0228 11:22:52.289530  9676 net.cpp:129] Top shape: 8 256 14 14 (401408)
I0228 11:22:52.289533  9676 net.cpp:137] Memory required for data: 1616871424
I0228 11:22:52.289544  9676 layer_factory.hpp:77] Creating layer res4d_branch2b_relu
I0228 11:22:52.289551  9676 net.cpp:84] Creating Layer res4d_branch2b_relu
I0228 11:22:52.289554  9676 net.cpp:406] res4d_branch2b_relu <- res4d_branch2b
I0228 11:22:52.289561  9676 net.cpp:367] res4d_branch2b_relu -> res4d_branch2b (in-place)
I0228 11:22:52.289732  9676 net.cpp:122] Setting up res4d_branch2b_relu
I0228 11:22:52.289741  9676 net.cpp:129] Top shape: 8 256 14 14 (401408)
I0228 11:22:52.289744  9676 net.cpp:137] Memory required for data: 1618477056
I0228 11:22:52.289748  9676 layer_factory.hpp:77] Creating layer res4d_branch2c
I0228 11:22:52.289757  9676 net.cpp:84] Creating Layer res4d_branch2c
I0228 11:22:52.289762  9676 net.cpp:406] res4d_branch2c <- res4d_branch2b
I0228 11:22:52.289768  9676 net.cpp:380] res4d_branch2c -> res4d_branch2c
I0228 11:22:52.291731  9676 net.cpp:122] Setting up res4d_branch2c
I0228 11:22:52.291745  9676 net.cpp:129] Top shape: 8 1024 14 14 (1605632)
I0228 11:22:52.291749  9676 net.cpp:137] Memory required for data: 1624899584
I0228 11:22:52.291756  9676 layer_factory.hpp:77] Creating layer bn4d_branch2c
I0228 11:22:52.291765  9676 net.cpp:84] Creating Layer bn4d_branch2c
I0228 11:22:52.291769  9676 net.cpp:406] bn4d_branch2c <- res4d_branch2c
I0228 11:22:52.291776  9676 net.cpp:367] bn4d_branch2c -> res4d_branch2c (in-place)
I0228 11:22:52.291968  9676 net.cpp:122] Setting up bn4d_branch2c
I0228 11:22:52.291975  9676 net.cpp:129] Top shape: 8 1024 14 14 (1605632)
I0228 11:22:52.291980  9676 net.cpp:137] Memory required for data: 1631322112
I0228 11:22:52.291988  9676 layer_factory.hpp:77] Creating layer scale4d_branch2c
I0228 11:22:52.291996  9676 net.cpp:84] Creating Layer scale4d_branch2c
I0228 11:22:52.291999  9676 net.cpp:406] scale4d_branch2c <- res4d_branch2c
I0228 11:22:52.292006  9676 net.cpp:367] scale4d_branch2c -> res4d_branch2c (in-place)
I0228 11:22:52.292042  9676 layer_factory.hpp:77] Creating layer scale4d_branch2c
I0228 11:22:52.292155  9676 net.cpp:122] Setting up scale4d_branch2c
I0228 11:22:52.292162  9676 net.cpp:129] Top shape: 8 1024 14 14 (1605632)
I0228 11:22:52.292165  9676 net.cpp:137] Memory required for data: 1637744640
I0228 11:22:52.292172  9676 layer_factory.hpp:77] Creating layer res4d
I0228 11:22:52.292178  9676 net.cpp:84] Creating Layer res4d
I0228 11:22:52.292182  9676 net.cpp:406] res4d <- res4c_res4c_relu_0_split_1
I0228 11:22:52.292187  9676 net.cpp:406] res4d <- res4d_branch2c
I0228 11:22:52.292193  9676 net.cpp:380] res4d -> res4d
I0228 11:22:52.292217  9676 net.cpp:122] Setting up res4d
I0228 11:22:52.292228  9676 net.cpp:129] Top shape: 8 1024 14 14 (1605632)
I0228 11:22:52.292232  9676 net.cpp:137] Memory required for data: 1644167168
I0228 11:22:52.292235  9676 layer_factory.hpp:77] Creating layer res4d_relu
I0228 11:22:52.292240  9676 net.cpp:84] Creating Layer res4d_relu
I0228 11:22:52.292244  9676 net.cpp:406] res4d_relu <- res4d
I0228 11:22:52.292248  9676 net.cpp:367] res4d_relu -> res4d (in-place)
I0228 11:22:52.292410  9676 net.cpp:122] Setting up res4d_relu
I0228 11:22:52.292419  9676 net.cpp:129] Top shape: 8 1024 14 14 (1605632)
I0228 11:22:52.292423  9676 net.cpp:137] Memory required for data: 1650589696
I0228 11:22:52.292428  9676 layer_factory.hpp:77] Creating layer res4d_res4d_relu_0_split
I0228 11:22:52.292434  9676 net.cpp:84] Creating Layer res4d_res4d_relu_0_split
I0228 11:22:52.292438  9676 net.cpp:406] res4d_res4d_relu_0_split <- res4d
I0228 11:22:52.292444  9676 net.cpp:380] res4d_res4d_relu_0_split -> res4d_res4d_relu_0_split_0
I0228 11:22:52.292451  9676 net.cpp:380] res4d_res4d_relu_0_split -> res4d_res4d_relu_0_split_1
I0228 11:22:52.292490  9676 net.cpp:122] Setting up res4d_res4d_relu_0_split
I0228 11:22:52.292497  9676 net.cpp:129] Top shape: 8 1024 14 14 (1605632)
I0228 11:22:52.292501  9676 net.cpp:129] Top shape: 8 1024 14 14 (1605632)
I0228 11:22:52.292505  9676 net.cpp:137] Memory required for data: 1663434752
I0228 11:22:52.292508  9676 layer_factory.hpp:77] Creating layer res4e_branch2a
I0228 11:22:52.292517  9676 net.cpp:84] Creating Layer res4e_branch2a
I0228 11:22:52.292523  9676 net.cpp:406] res4e_branch2a <- res4d_res4d_relu_0_split_0
I0228 11:22:52.292531  9676 net.cpp:380] res4e_branch2a -> res4e_branch2a
I0228 11:22:52.293623  9676 net.cpp:122] Setting up res4e_branch2a
I0228 11:22:52.293637  9676 net.cpp:129] Top shape: 8 256 14 14 (401408)
I0228 11:22:52.293642  9676 net.cpp:137] Memory required for data: 1665040384
I0228 11:22:52.293648  9676 layer_factory.hpp:77] Creating layer bn4e_branch2a
I0228 11:22:52.293656  9676 net.cpp:84] Creating Layer bn4e_branch2a
I0228 11:22:52.293661  9676 net.cpp:406] bn4e_branch2a <- res4e_branch2a
I0228 11:22:52.293668  9676 net.cpp:367] bn4e_branch2a -> res4e_branch2a (in-place)
I0228 11:22:52.293856  9676 net.cpp:122] Setting up bn4e_branch2a
I0228 11:22:52.293864  9676 net.cpp:129] Top shape: 8 256 14 14 (401408)
I0228 11:22:52.293867  9676 net.cpp:137] Memory required for data: 1666646016
I0228 11:22:52.293875  9676 layer_factory.hpp:77] Creating layer scale4e_branch2a
I0228 11:22:52.293884  9676 net.cpp:84] Creating Layer scale4e_branch2a
I0228 11:22:52.293886  9676 net.cpp:406] scale4e_branch2a <- res4e_branch2a
I0228 11:22:52.293892  9676 net.cpp:367] scale4e_branch2a -> res4e_branch2a (in-place)
I0228 11:22:52.293934  9676 layer_factory.hpp:77] Creating layer scale4e_branch2a
I0228 11:22:52.294042  9676 net.cpp:122] Setting up scale4e_branch2a
I0228 11:22:52.294049  9676 net.cpp:129] Top shape: 8 256 14 14 (401408)
I0228 11:22:52.294054  9676 net.cpp:137] Memory required for data: 1668251648
I0228 11:22:52.294061  9676 layer_factory.hpp:77] Creating layer res4e_branch2a_relu
I0228 11:22:52.294067  9676 net.cpp:84] Creating Layer res4e_branch2a_relu
I0228 11:22:52.294070  9676 net.cpp:406] res4e_branch2a_relu <- res4e_branch2a
I0228 11:22:52.294076  9676 net.cpp:367] res4e_branch2a_relu -> res4e_branch2a (in-place)
I0228 11:22:52.294270  9676 net.cpp:122] Setting up res4e_branch2a_relu
I0228 11:22:52.294279  9676 net.cpp:129] Top shape: 8 256 14 14 (401408)
I0228 11:22:52.294282  9676 net.cpp:137] Memory required for data: 1669857280
I0228 11:22:52.294286  9676 layer_factory.hpp:77] Creating layer res4e_branch2b
I0228 11:22:52.294296  9676 net.cpp:84] Creating Layer res4e_branch2b
I0228 11:22:52.294301  9676 net.cpp:406] res4e_branch2b <- res4e_branch2a
I0228 11:22:52.294306  9676 net.cpp:380] res4e_branch2b -> res4e_branch2b
I0228 11:22:52.296736  9676 net.cpp:122] Setting up res4e_branch2b
I0228 11:22:52.296749  9676 net.cpp:129] Top shape: 8 256 14 14 (401408)
I0228 11:22:52.296753  9676 net.cpp:137] Memory required for data: 1671462912
I0228 11:22:52.296761  9676 layer_factory.hpp:77] Creating layer bn4e_branch2b
I0228 11:22:52.296772  9676 net.cpp:84] Creating Layer bn4e_branch2b
I0228 11:22:52.296777  9676 net.cpp:406] bn4e_branch2b <- res4e_branch2b
I0228 11:22:52.296784  9676 net.cpp:367] bn4e_branch2b -> res4e_branch2b (in-place)
I0228 11:22:52.296977  9676 net.cpp:122] Setting up bn4e_branch2b
I0228 11:22:52.296983  9676 net.cpp:129] Top shape: 8 256 14 14 (401408)
I0228 11:22:52.296988  9676 net.cpp:137] Memory required for data: 1673068544
I0228 11:22:52.296996  9676 layer_factory.hpp:77] Creating layer scale4e_branch2b
I0228 11:22:52.297003  9676 net.cpp:84] Creating Layer scale4e_branch2b
I0228 11:22:52.297008  9676 net.cpp:406] scale4e_branch2b <- res4e_branch2b
I0228 11:22:52.297014  9676 net.cpp:367] scale4e_branch2b -> res4e_branch2b (in-place)
I0228 11:22:52.297055  9676 layer_factory.hpp:77] Creating layer scale4e_branch2b
I0228 11:22:52.297159  9676 net.cpp:122] Setting up scale4e_branch2b
I0228 11:22:52.297168  9676 net.cpp:129] Top shape: 8 256 14 14 (401408)
I0228 11:22:52.297170  9676 net.cpp:137] Memory required for data: 1674674176
I0228 11:22:52.297178  9676 layer_factory.hpp:77] Creating layer res4e_branch2b_relu
I0228 11:22:52.297183  9676 net.cpp:84] Creating Layer res4e_branch2b_relu
I0228 11:22:52.297186  9676 net.cpp:406] res4e_branch2b_relu <- res4e_branch2b
I0228 11:22:52.297195  9676 net.cpp:367] res4e_branch2b_relu -> res4e_branch2b (in-place)
I0228 11:22:52.297369  9676 net.cpp:122] Setting up res4e_branch2b_relu
I0228 11:22:52.297379  9676 net.cpp:129] Top shape: 8 256 14 14 (401408)
I0228 11:22:52.297382  9676 net.cpp:137] Memory required for data: 1676279808
I0228 11:22:52.297386  9676 layer_factory.hpp:77] Creating layer res4e_branch2c
I0228 11:22:52.297395  9676 net.cpp:84] Creating Layer res4e_branch2c
I0228 11:22:52.297399  9676 net.cpp:406] res4e_branch2c <- res4e_branch2b
I0228 11:22:52.297405  9676 net.cpp:380] res4e_branch2c -> res4e_branch2c
I0228 11:22:52.299360  9676 net.cpp:122] Setting up res4e_branch2c
I0228 11:22:52.299374  9676 net.cpp:129] Top shape: 8 1024 14 14 (1605632)
I0228 11:22:52.299378  9676 net.cpp:137] Memory required for data: 1682702336
I0228 11:22:52.299386  9676 layer_factory.hpp:77] Creating layer bn4e_branch2c
I0228 11:22:52.299396  9676 net.cpp:84] Creating Layer bn4e_branch2c
I0228 11:22:52.299399  9676 net.cpp:406] bn4e_branch2c <- res4e_branch2c
I0228 11:22:52.299407  9676 net.cpp:367] bn4e_branch2c -> res4e_branch2c (in-place)
I0228 11:22:52.299600  9676 net.cpp:122] Setting up bn4e_branch2c
I0228 11:22:52.299608  9676 net.cpp:129] Top shape: 8 1024 14 14 (1605632)
I0228 11:22:52.299612  9676 net.cpp:137] Memory required for data: 1689124864
I0228 11:22:52.299619  9676 layer_factory.hpp:77] Creating layer scale4e_branch2c
I0228 11:22:52.299626  9676 net.cpp:84] Creating Layer scale4e_branch2c
I0228 11:22:52.299630  9676 net.cpp:406] scale4e_branch2c <- res4e_branch2c
I0228 11:22:52.299636  9676 net.cpp:367] scale4e_branch2c -> res4e_branch2c (in-place)
I0228 11:22:52.299674  9676 layer_factory.hpp:77] Creating layer scale4e_branch2c
I0228 11:22:52.299785  9676 net.cpp:122] Setting up scale4e_branch2c
I0228 11:22:52.299793  9676 net.cpp:129] Top shape: 8 1024 14 14 (1605632)
I0228 11:22:52.299795  9676 net.cpp:137] Memory required for data: 1695547392
I0228 11:22:52.299803  9676 layer_factory.hpp:77] Creating layer res4e
I0228 11:22:52.299808  9676 net.cpp:84] Creating Layer res4e
I0228 11:22:52.299813  9676 net.cpp:406] res4e <- res4d_res4d_relu_0_split_1
I0228 11:22:52.299818  9676 net.cpp:406] res4e <- res4e_branch2c
I0228 11:22:52.299823  9676 net.cpp:380] res4e -> res4e
I0228 11:22:52.299847  9676 net.cpp:122] Setting up res4e
I0228 11:22:52.299855  9676 net.cpp:129] Top shape: 8 1024 14 14 (1605632)
I0228 11:22:52.299860  9676 net.cpp:137] Memory required for data: 1701969920
I0228 11:22:52.299863  9676 layer_factory.hpp:77] Creating layer res4e_relu
I0228 11:22:52.299870  9676 net.cpp:84] Creating Layer res4e_relu
I0228 11:22:52.299872  9676 net.cpp:406] res4e_relu <- res4e
I0228 11:22:52.299877  9676 net.cpp:367] res4e_relu -> res4e (in-place)
I0228 11:22:52.300307  9676 net.cpp:122] Setting up res4e_relu
I0228 11:22:52.300320  9676 net.cpp:129] Top shape: 8 1024 14 14 (1605632)
I0228 11:22:52.300323  9676 net.cpp:137] Memory required for data: 1708392448
I0228 11:22:52.300328  9676 layer_factory.hpp:77] Creating layer res4e_res4e_relu_0_split
I0228 11:22:52.300335  9676 net.cpp:84] Creating Layer res4e_res4e_relu_0_split
I0228 11:22:52.300340  9676 net.cpp:406] res4e_res4e_relu_0_split <- res4e
I0228 11:22:52.300346  9676 net.cpp:380] res4e_res4e_relu_0_split -> res4e_res4e_relu_0_split_0
I0228 11:22:52.300354  9676 net.cpp:380] res4e_res4e_relu_0_split -> res4e_res4e_relu_0_split_1
I0228 11:22:52.300397  9676 net.cpp:122] Setting up res4e_res4e_relu_0_split
I0228 11:22:52.300405  9676 net.cpp:129] Top shape: 8 1024 14 14 (1605632)
I0228 11:22:52.300410  9676 net.cpp:129] Top shape: 8 1024 14 14 (1605632)
I0228 11:22:52.300412  9676 net.cpp:137] Memory required for data: 1721237504
I0228 11:22:52.300415  9676 layer_factory.hpp:77] Creating layer res4f_branch2a
I0228 11:22:52.300426  9676 net.cpp:84] Creating Layer res4f_branch2a
I0228 11:22:52.300429  9676 net.cpp:406] res4f_branch2a <- res4e_res4e_relu_0_split_0
I0228 11:22:52.300436  9676 net.cpp:380] res4f_branch2a -> res4f_branch2a
I0228 11:22:52.301259  9676 net.cpp:122] Setting up res4f_branch2a
I0228 11:22:52.301271  9676 net.cpp:129] Top shape: 8 256 14 14 (401408)
I0228 11:22:52.301277  9676 net.cpp:137] Memory required for data: 1722843136
I0228 11:22:52.301283  9676 layer_factory.hpp:77] Creating layer bn4f_branch2a
I0228 11:22:52.301291  9676 net.cpp:84] Creating Layer bn4f_branch2a
I0228 11:22:52.301296  9676 net.cpp:406] bn4f_branch2a <- res4f_branch2a
I0228 11:22:52.301302  9676 net.cpp:367] bn4f_branch2a -> res4f_branch2a (in-place)
I0228 11:22:52.301487  9676 net.cpp:122] Setting up bn4f_branch2a
I0228 11:22:52.301494  9676 net.cpp:129] Top shape: 8 256 14 14 (401408)
I0228 11:22:52.301498  9676 net.cpp:137] Memory required for data: 1724448768
I0228 11:22:52.301506  9676 layer_factory.hpp:77] Creating layer scale4f_branch2a
I0228 11:22:52.301514  9676 net.cpp:84] Creating Layer scale4f_branch2a
I0228 11:22:52.301518  9676 net.cpp:406] scale4f_branch2a <- res4f_branch2a
I0228 11:22:52.301523  9676 net.cpp:367] scale4f_branch2a -> res4f_branch2a (in-place)
I0228 11:22:52.301563  9676 layer_factory.hpp:77] Creating layer scale4f_branch2a
I0228 11:22:52.301671  9676 net.cpp:122] Setting up scale4f_branch2a
I0228 11:22:52.301677  9676 net.cpp:129] Top shape: 8 256 14 14 (401408)
I0228 11:22:52.301681  9676 net.cpp:137] Memory required for data: 1726054400
I0228 11:22:52.301687  9676 layer_factory.hpp:77] Creating layer res4f_branch2a_relu
I0228 11:22:52.301692  9676 net.cpp:84] Creating Layer res4f_branch2a_relu
I0228 11:22:52.301697  9676 net.cpp:406] res4f_branch2a_relu <- res4f_branch2a
I0228 11:22:52.301705  9676 net.cpp:367] res4f_branch2a_relu -> res4f_branch2a (in-place)
I0228 11:22:52.302165  9676 net.cpp:122] Setting up res4f_branch2a_relu
I0228 11:22:52.302181  9676 net.cpp:129] Top shape: 8 256 14 14 (401408)
I0228 11:22:52.302186  9676 net.cpp:137] Memory required for data: 1727660032
I0228 11:22:52.302206  9676 layer_factory.hpp:77] Creating layer res4f_branch2b
I0228 11:22:52.302220  9676 net.cpp:84] Creating Layer res4f_branch2b
I0228 11:22:52.302227  9676 net.cpp:406] res4f_branch2b <- res4f_branch2a
I0228 11:22:52.302233  9676 net.cpp:380] res4f_branch2b -> res4f_branch2b
I0228 11:22:52.304808  9676 net.cpp:122] Setting up res4f_branch2b
I0228 11:22:52.304823  9676 net.cpp:129] Top shape: 8 256 14 14 (401408)
I0228 11:22:52.304827  9676 net.cpp:137] Memory required for data: 1729265664
I0228 11:22:52.304836  9676 layer_factory.hpp:77] Creating layer bn4f_branch2b
I0228 11:22:52.304847  9676 net.cpp:84] Creating Layer bn4f_branch2b
I0228 11:22:52.304852  9676 net.cpp:406] bn4f_branch2b <- res4f_branch2b
I0228 11:22:52.304859  9676 net.cpp:367] bn4f_branch2b -> res4f_branch2b (in-place)
I0228 11:22:52.305057  9676 net.cpp:122] Setting up bn4f_branch2b
I0228 11:22:52.305064  9676 net.cpp:129] Top shape: 8 256 14 14 (401408)
I0228 11:22:52.305068  9676 net.cpp:137] Memory required for data: 1730871296
I0228 11:22:52.305076  9676 layer_factory.hpp:77] Creating layer scale4f_branch2b
I0228 11:22:52.305084  9676 net.cpp:84] Creating Layer scale4f_branch2b
I0228 11:22:52.305089  9676 net.cpp:406] scale4f_branch2b <- res4f_branch2b
I0228 11:22:52.305094  9676 net.cpp:367] scale4f_branch2b -> res4f_branch2b (in-place)
I0228 11:22:52.305136  9676 layer_factory.hpp:77] Creating layer scale4f_branch2b
I0228 11:22:52.305244  9676 net.cpp:122] Setting up scale4f_branch2b
I0228 11:22:52.305251  9676 net.cpp:129] Top shape: 8 256 14 14 (401408)
I0228 11:22:52.305255  9676 net.cpp:137] Memory required for data: 1732476928
I0228 11:22:52.305263  9676 layer_factory.hpp:77] Creating layer res4f_branch2b_relu
I0228 11:22:52.305268  9676 net.cpp:84] Creating Layer res4f_branch2b_relu
I0228 11:22:52.305271  9676 net.cpp:406] res4f_branch2b_relu <- res4f_branch2b
I0228 11:22:52.305277  9676 net.cpp:367] res4f_branch2b_relu -> res4f_branch2b (in-place)
I0228 11:22:52.305449  9676 net.cpp:122] Setting up res4f_branch2b_relu
I0228 11:22:52.305457  9676 net.cpp:129] Top shape: 8 256 14 14 (401408)
I0228 11:22:52.305461  9676 net.cpp:137] Memory required for data: 1734082560
I0228 11:22:52.305466  9676 layer_factory.hpp:77] Creating layer res4f_branch2c
I0228 11:22:52.305476  9676 net.cpp:84] Creating Layer res4f_branch2c
I0228 11:22:52.305482  9676 net.cpp:406] res4f_branch2c <- res4f_branch2b
I0228 11:22:52.305490  9676 net.cpp:380] res4f_branch2c -> res4f_branch2c
I0228 11:22:52.307488  9676 net.cpp:122] Setting up res4f_branch2c
I0228 11:22:52.307502  9676 net.cpp:129] Top shape: 8 1024 14 14 (1605632)
I0228 11:22:52.307507  9676 net.cpp:137] Memory required for data: 1740505088
I0228 11:22:52.307514  9676 layer_factory.hpp:77] Creating layer bn4f_branch2c
I0228 11:22:52.307523  9676 net.cpp:84] Creating Layer bn4f_branch2c
I0228 11:22:52.307528  9676 net.cpp:406] bn4f_branch2c <- res4f_branch2c
I0228 11:22:52.307535  9676 net.cpp:367] bn4f_branch2c -> res4f_branch2c (in-place)
I0228 11:22:52.307734  9676 net.cpp:122] Setting up bn4f_branch2c
I0228 11:22:52.307740  9676 net.cpp:129] Top shape: 8 1024 14 14 (1605632)
I0228 11:22:52.307744  9676 net.cpp:137] Memory required for data: 1746927616
I0228 11:22:52.307803  9676 layer_factory.hpp:77] Creating layer scale4f_branch2c
I0228 11:22:52.307812  9676 net.cpp:84] Creating Layer scale4f_branch2c
I0228 11:22:52.307816  9676 net.cpp:406] scale4f_branch2c <- res4f_branch2c
I0228 11:22:52.307821  9676 net.cpp:367] scale4f_branch2c -> res4f_branch2c (in-place)
I0228 11:22:52.307862  9676 layer_factory.hpp:77] Creating layer scale4f_branch2c
I0228 11:22:52.307976  9676 net.cpp:122] Setting up scale4f_branch2c
I0228 11:22:52.307989  9676 net.cpp:129] Top shape: 8 1024 14 14 (1605632)
I0228 11:22:52.307993  9676 net.cpp:137] Memory required for data: 1753350144
I0228 11:22:52.308001  9676 layer_factory.hpp:77] Creating layer res4f
I0228 11:22:52.308007  9676 net.cpp:84] Creating Layer res4f
I0228 11:22:52.308012  9676 net.cpp:406] res4f <- res4e_res4e_relu_0_split_1
I0228 11:22:52.308017  9676 net.cpp:406] res4f <- res4f_branch2c
I0228 11:22:52.308022  9676 net.cpp:380] res4f -> res4f
I0228 11:22:52.308048  9676 net.cpp:122] Setting up res4f
I0228 11:22:52.308055  9676 net.cpp:129] Top shape: 8 1024 14 14 (1605632)
I0228 11:22:52.308058  9676 net.cpp:137] Memory required for data: 1759772672
I0228 11:22:52.308063  9676 layer_factory.hpp:77] Creating layer res4f_relu
I0228 11:22:52.308068  9676 net.cpp:84] Creating Layer res4f_relu
I0228 11:22:52.308071  9676 net.cpp:406] res4f_relu <- res4f
I0228 11:22:52.308077  9676 net.cpp:367] res4f_relu -> res4f (in-place)
I0228 11:22:52.308243  9676 net.cpp:122] Setting up res4f_relu
I0228 11:22:52.308250  9676 net.cpp:129] Top shape: 8 1024 14 14 (1605632)
I0228 11:22:52.308254  9676 net.cpp:137] Memory required for data: 1766195200
I0228 11:22:52.308259  9676 layer_factory.hpp:77] Creating layer res4f_res4f_relu_0_split
I0228 11:22:52.308265  9676 net.cpp:84] Creating Layer res4f_res4f_relu_0_split
I0228 11:22:52.308269  9676 net.cpp:406] res4f_res4f_relu_0_split <- res4f
I0228 11:22:52.308274  9676 net.cpp:380] res4f_res4f_relu_0_split -> res4f_res4f_relu_0_split_0
I0228 11:22:52.308281  9676 net.cpp:380] res4f_res4f_relu_0_split -> res4f_res4f_relu_0_split_1
I0228 11:22:52.308323  9676 net.cpp:122] Setting up res4f_res4f_relu_0_split
I0228 11:22:52.308331  9676 net.cpp:129] Top shape: 8 1024 14 14 (1605632)
I0228 11:22:52.308334  9676 net.cpp:129] Top shape: 8 1024 14 14 (1605632)
I0228 11:22:52.308337  9676 net.cpp:137] Memory required for data: 1779040256
I0228 11:22:52.308342  9676 layer_factory.hpp:77] Creating layer res5a_branch1
I0228 11:22:52.308351  9676 net.cpp:84] Creating Layer res5a_branch1
I0228 11:22:52.308356  9676 net.cpp:406] res5a_branch1 <- res4f_res4f_relu_0_split_0
I0228 11:22:52.308362  9676 net.cpp:380] res5a_branch1 -> res5a_branch1
I0228 11:22:52.312935  9676 net.cpp:122] Setting up res5a_branch1
I0228 11:22:52.312953  9676 net.cpp:129] Top shape: 8 2048 7 7 (802816)
I0228 11:22:52.312958  9676 net.cpp:137] Memory required for data: 1782251520
I0228 11:22:52.312965  9676 layer_factory.hpp:77] Creating layer bn5a_branch1
I0228 11:22:52.312974  9676 net.cpp:84] Creating Layer bn5a_branch1
I0228 11:22:52.312980  9676 net.cpp:406] bn5a_branch1 <- res5a_branch1
I0228 11:22:52.312988  9676 net.cpp:367] bn5a_branch1 -> res5a_branch1 (in-place)
I0228 11:22:52.313213  9676 net.cpp:122] Setting up bn5a_branch1
I0228 11:22:52.313220  9676 net.cpp:129] Top shape: 8 2048 7 7 (802816)
I0228 11:22:52.313225  9676 net.cpp:137] Memory required for data: 1785462784
I0228 11:22:52.313235  9676 layer_factory.hpp:77] Creating layer scale5a_branch1
I0228 11:22:52.313242  9676 net.cpp:84] Creating Layer scale5a_branch1
I0228 11:22:52.313246  9676 net.cpp:406] scale5a_branch1 <- res5a_branch1
I0228 11:22:52.313251  9676 net.cpp:367] scale5a_branch1 -> res5a_branch1 (in-place)
I0228 11:22:52.313293  9676 layer_factory.hpp:77] Creating layer scale5a_branch1
I0228 11:22:52.313417  9676 net.cpp:122] Setting up scale5a_branch1
I0228 11:22:52.313426  9676 net.cpp:129] Top shape: 8 2048 7 7 (802816)
I0228 11:22:52.313428  9676 net.cpp:137] Memory required for data: 1788674048
I0228 11:22:52.313437  9676 layer_factory.hpp:77] Creating layer res5a_branch2a
I0228 11:22:52.313446  9676 net.cpp:84] Creating Layer res5a_branch2a
I0228 11:22:52.313450  9676 net.cpp:406] res5a_branch2a <- res4f_res4f_relu_0_split_1
I0228 11:22:52.313457  9676 net.cpp:380] res5a_branch2a -> res5a_branch2a
I0228 11:22:52.315609  9676 net.cpp:122] Setting up res5a_branch2a
I0228 11:22:52.315623  9676 net.cpp:129] Top shape: 8 512 7 7 (200704)
I0228 11:22:52.315627  9676 net.cpp:137] Memory required for data: 1789476864
I0228 11:22:52.315635  9676 layer_factory.hpp:77] Creating layer bn5a_branch2a
I0228 11:22:52.315644  9676 net.cpp:84] Creating Layer bn5a_branch2a
I0228 11:22:52.315649  9676 net.cpp:406] bn5a_branch2a <- res5a_branch2a
I0228 11:22:52.315655  9676 net.cpp:367] bn5a_branch2a -> res5a_branch2a (in-place)
I0228 11:22:52.315863  9676 net.cpp:122] Setting up bn5a_branch2a
I0228 11:22:52.315871  9676 net.cpp:129] Top shape: 8 512 7 7 (200704)
I0228 11:22:52.315874  9676 net.cpp:137] Memory required for data: 1790279680
I0228 11:22:52.315882  9676 layer_factory.hpp:77] Creating layer scale5a_branch2a
I0228 11:22:52.315888  9676 net.cpp:84] Creating Layer scale5a_branch2a
I0228 11:22:52.315892  9676 net.cpp:406] scale5a_branch2a <- res5a_branch2a
I0228 11:22:52.315899  9676 net.cpp:367] scale5a_branch2a -> res5a_branch2a (in-place)
I0228 11:22:52.315938  9676 layer_factory.hpp:77] Creating layer scale5a_branch2a
I0228 11:22:52.316056  9676 net.cpp:122] Setting up scale5a_branch2a
I0228 11:22:52.316063  9676 net.cpp:129] Top shape: 8 512 7 7 (200704)
I0228 11:22:52.316066  9676 net.cpp:137] Memory required for data: 1791082496
I0228 11:22:52.316073  9676 layer_factory.hpp:77] Creating layer res5a_branch2a_relu
I0228 11:22:52.316079  9676 net.cpp:84] Creating Layer res5a_branch2a_relu
I0228 11:22:52.316083  9676 net.cpp:406] res5a_branch2a_relu <- res5a_branch2a
I0228 11:22:52.316089  9676 net.cpp:367] res5a_branch2a_relu -> res5a_branch2a (in-place)
I0228 11:22:52.316257  9676 net.cpp:122] Setting up res5a_branch2a_relu
I0228 11:22:52.316267  9676 net.cpp:129] Top shape: 8 512 7 7 (200704)
I0228 11:22:52.316270  9676 net.cpp:137] Memory required for data: 1791885312
I0228 11:22:52.316275  9676 layer_factory.hpp:77] Creating layer res5a_branch2b
I0228 11:22:52.316283  9676 net.cpp:84] Creating Layer res5a_branch2b
I0228 11:22:52.316288  9676 net.cpp:406] res5a_branch2b <- res5a_branch2a
I0228 11:22:52.316294  9676 net.cpp:380] res5a_branch2b -> res5a_branch2b
I0228 11:22:52.321379  9676 net.cpp:122] Setting up res5a_branch2b
I0228 11:22:52.321400  9676 net.cpp:129] Top shape: 8 512 7 7 (200704)
I0228 11:22:52.321404  9676 net.cpp:137] Memory required for data: 1792688128
I0228 11:22:52.321413  9676 layer_factory.hpp:77] Creating layer bn5a_branch2b
I0228 11:22:52.321424  9676 net.cpp:84] Creating Layer bn5a_branch2b
I0228 11:22:52.321429  9676 net.cpp:406] bn5a_branch2b <- res5a_branch2b
I0228 11:22:52.321435  9676 net.cpp:367] bn5a_branch2b -> res5a_branch2b (in-place)
I0228 11:22:52.321647  9676 net.cpp:122] Setting up bn5a_branch2b
I0228 11:22:52.321655  9676 net.cpp:129] Top shape: 8 512 7 7 (200704)
I0228 11:22:52.321658  9676 net.cpp:137] Memory required for data: 1793490944
I0228 11:22:52.321673  9676 layer_factory.hpp:77] Creating layer scale5a_branch2b
I0228 11:22:52.321681  9676 net.cpp:84] Creating Layer scale5a_branch2b
I0228 11:22:52.321684  9676 net.cpp:406] scale5a_branch2b <- res5a_branch2b
I0228 11:22:52.321691  9676 net.cpp:367] scale5a_branch2b -> res5a_branch2b (in-place)
I0228 11:22:52.321732  9676 layer_factory.hpp:77] Creating layer scale5a_branch2b
I0228 11:22:52.321851  9676 net.cpp:122] Setting up scale5a_branch2b
I0228 11:22:52.321859  9676 net.cpp:129] Top shape: 8 512 7 7 (200704)
I0228 11:22:52.321862  9676 net.cpp:137] Memory required for data: 1794293760
I0228 11:22:52.321871  9676 layer_factory.hpp:77] Creating layer res5a_branch2b_relu
I0228 11:22:52.321876  9676 net.cpp:84] Creating Layer res5a_branch2b_relu
I0228 11:22:52.321879  9676 net.cpp:406] res5a_branch2b_relu <- res5a_branch2b
I0228 11:22:52.321887  9676 net.cpp:367] res5a_branch2b_relu -> res5a_branch2b (in-place)
I0228 11:22:52.322054  9676 net.cpp:122] Setting up res5a_branch2b_relu
I0228 11:22:52.322063  9676 net.cpp:129] Top shape: 8 512 7 7 (200704)
I0228 11:22:52.322067  9676 net.cpp:137] Memory required for data: 1795096576
I0228 11:22:52.322070  9676 layer_factory.hpp:77] Creating layer res5a_branch2c
I0228 11:22:52.322079  9676 net.cpp:84] Creating Layer res5a_branch2c
I0228 11:22:52.322083  9676 net.cpp:406] res5a_branch2c <- res5a_branch2b
I0228 11:22:52.322089  9676 net.cpp:380] res5a_branch2c -> res5a_branch2c
I0228 11:22:52.325070  9676 net.cpp:122] Setting up res5a_branch2c
I0228 11:22:52.325086  9676 net.cpp:129] Top shape: 8 2048 7 7 (802816)
I0228 11:22:52.325090  9676 net.cpp:137] Memory required for data: 1798307840
I0228 11:22:52.325098  9676 layer_factory.hpp:77] Creating layer bn5a_branch2c
I0228 11:22:52.325106  9676 net.cpp:84] Creating Layer bn5a_branch2c
I0228 11:22:52.325111  9676 net.cpp:406] bn5a_branch2c <- res5a_branch2c
I0228 11:22:52.325117  9676 net.cpp:367] bn5a_branch2c -> res5a_branch2c (in-place)
I0228 11:22:52.325326  9676 net.cpp:122] Setting up bn5a_branch2c
I0228 11:22:52.325335  9676 net.cpp:129] Top shape: 8 2048 7 7 (802816)
I0228 11:22:52.325338  9676 net.cpp:137] Memory required for data: 1801519104
I0228 11:22:52.325348  9676 layer_factory.hpp:77] Creating layer scale5a_branch2c
I0228 11:22:52.325356  9676 net.cpp:84] Creating Layer scale5a_branch2c
I0228 11:22:52.325359  9676 net.cpp:406] scale5a_branch2c <- res5a_branch2c
I0228 11:22:52.325366  9676 net.cpp:367] scale5a_branch2c -> res5a_branch2c (in-place)
I0228 11:22:52.325407  9676 layer_factory.hpp:77] Creating layer scale5a_branch2c
I0228 11:22:52.325527  9676 net.cpp:122] Setting up scale5a_branch2c
I0228 11:22:52.325536  9676 net.cpp:129] Top shape: 8 2048 7 7 (802816)
I0228 11:22:52.325539  9676 net.cpp:137] Memory required for data: 1804730368
I0228 11:22:52.325546  9676 layer_factory.hpp:77] Creating layer res5a
I0228 11:22:52.325552  9676 net.cpp:84] Creating Layer res5a
I0228 11:22:52.325556  9676 net.cpp:406] res5a <- res5a_branch1
I0228 11:22:52.325562  9676 net.cpp:406] res5a <- res5a_branch2c
I0228 11:22:52.325567  9676 net.cpp:380] res5a -> res5a
I0228 11:22:52.325592  9676 net.cpp:122] Setting up res5a
I0228 11:22:52.325599  9676 net.cpp:129] Top shape: 8 2048 7 7 (802816)
…
I0228 11:22:52.463160  9676 net.cpp:465] Sharing parameters 'bn4e_branch2c_scale_factor' owned by layer 'bn4e_branch2c', param index 2
I0228 11:22:52.463163  9676 layer_factory.hpp:77] Creating layer scale4e_branch2c_p
I0228 11:22:52.463171  9676 net.cpp:84] Creating Layer scale4e_branch2c_p
I0228 11:22:52.463176  9676 net.cpp:406] scale4e_branch2c_p <- res4e_branch2c_p
I0228 11:22:52.463181  9676 net.cpp:367] scale4e_branch2c_p -> res4e_branch2c_p (in-place)
I0228 11:22:52.463232  9676 layer_factory.hpp:77] Creating layer scale4e_branch2c_p
I0228 11:22:52.463382  9676 net.cpp:122] Setting up scale4e_branch2c_p
I0228 11:22:52.463390  9676 net.cpp:129] Top shape: 8 1024 14 14 (1605632)
I0228 11:22:52.463394  9676 net.cpp:137] Memory required for data: 3545366528
I0228 11:22:52.463399  9676 net.cpp:465] Sharing parameters 'scale4e_branch2c_alpha' owned by layer 'scale4e_branch2c', param index 0
I0228 11:22:52.463404  9676 net.cpp:465] Sharing parameters 'scale4e_branch2c_beta' owned by layer 'scale4e_branch2c', param index 1
I0228 11:22:52.463408  9676 layer_factory.hpp:77] Creating layer res4e_p
I0228 11:22:52.463414  9676 net.cpp:84] Creating Layer res4e_p
I0228 11:22:52.463418  9676 net.cpp:406] res4e_p <- res4d_p_res4d_relu_p_0_split_1
I0228 11:22:52.463423  9676 net.cpp:406] res4e_p <- res4e_branch2c_p
I0228 11:22:52.463430  9676 net.cpp:380] res4e_p -> res4e_p
I0228 11:22:52.463461  9676 net.cpp:122] Setting up res4e_p
I0228 11:22:52.463469  9676 net.cpp:129] Top shape: 8 1024 14 14 (1605632)
I0228 11:22:52.463471  9676 net.cpp:137] Memory required for data: 3551789056
I0228 11:22:52.463476  9676 layer_factory.hpp:77] Creating layer res4e_relu_p
I0228 11:22:52.463482  9676 net.cpp:84] Creating Layer res4e_relu_p
I0228 11:22:52.463485  9676 net.cpp:406] res4e_relu_p <- res4e_p
I0228 11:22:52.463491  9676 net.cpp:367] res4e_relu_p -> res4e_p (in-place)
I0228 11:22:52.463671  9676 net.cpp:122] Setting up res4e_relu_p
I0228 11:22:52.463680  9676 net.cpp:129] Top shape: 8 1024 14 14 (1605632)
I0228 11:22:52.463685  9676 net.cpp:137] Memory required for data: 3558211584
I0228 11:22:52.463687  9676 layer_factory.hpp:77] Creating layer res4e_p_res4e_relu_p_0_split
I0228 11:22:52.463696  9676 net.cpp:84] Creating Layer res4e_p_res4e_relu_p_0_split
I0228 11:22:52.463699  9676 net.cpp:406] res4e_p_res4e_relu_p_0_split <- res4e_p
I0228 11:22:52.463706  9676 net.cpp:380] res4e_p_res4e_relu_p_0_split -> res4e_p_res4e_relu_p_0_split_0
I0228 11:22:52.463711  9676 net.cpp:380] res4e_p_res4e_relu_p_0_split -> res4e_p_res4e_relu_p_0_split_1
I0228 11:22:52.463764  9676 net.cpp:122] Setting up res4e_p_res4e_relu_p_0_split
I0228 11:22:52.463771  9676 net.cpp:129] Top shape: 8 1024 14 14 (1605632)
I0228 11:22:52.463776  9676 net.cpp:129] Top shape: 8 1024 14 14 (1605632)
I0228 11:22:52.463779  9676 net.cpp:137] Memory required for data: 3571056640
I0228 11:22:52.463783  9676 layer_factory.hpp:77] Creating layer res4f_branch2a_p
I0228 11:22:52.463791  9676 net.cpp:84] Creating Layer res4f_branch2a_p
I0228 11:22:52.463795  9676 net.cpp:406] res4f_branch2a_p <- res4e_p_res4e_relu_p_0_split_0
I0228 11:22:52.463805  9676 net.cpp:380] res4f_branch2a_p -> res4f_branch2a_p
I0228 11:22:52.465076  9676 net.cpp:122] Setting up res4f_branch2a_p
I0228 11:22:52.465090  9676 net.cpp:129] Top shape: 8 256 14 14 (401408)
I0228 11:22:52.465095  9676 net.cpp:137] Memory required for data: 3572662272
I0228 11:22:52.465101  9676 net.cpp:465] Sharing parameters 'res4f_branch2a_w' owned by layer 'res4f_branch2a', param index 0
I0228 11:22:52.465106  9676 layer_factory.hpp:77] Creating layer bn4f_branch2a_p
I0228 11:22:52.465114  9676 net.cpp:84] Creating Layer bn4f_branch2a_p
I0228 11:22:52.465118  9676 net.cpp:406] bn4f_branch2a_p <- res4f_branch2a_p
I0228 11:22:52.465126  9676 net.cpp:367] bn4f_branch2a_p -> res4f_branch2a_p (in-place)
I0228 11:22:52.465369  9676 net.cpp:122] Setting up bn4f_branch2a_p
I0228 11:22:52.465378  9676 net.cpp:129] Top shape: 8 256 14 14 (401408)
I0228 11:22:52.465380  9676 net.cpp:137] Memory required for data: 3574267904
I0228 11:22:52.465389  9676 net.cpp:465] Sharing parameters 'bn4f_branch2a_mean' owned by layer 'bn4f_branch2a', param index 0
I0228 11:22:52.465395  9676 net.cpp:465] Sharing parameters 'bn4f_branch2a_variance' owned by layer 'bn4f_branch2a', param index 1
I0228 11:22:52.465400  9676 net.cpp:465] Sharing parameters 'bn4f_branch2a_scale_factor' owned by layer 'bn4f_branch2a', param index 2
I0228 11:22:52.465404  9676 layer_factory.hpp:77] Creating layer scale4f_branch2a_p
I0228 11:22:52.465410  9676 net.cpp:84] Creating Layer scale4f_branch2a_p
I0228 11:22:52.465415  9676 net.cpp:406] scale4f_branch2a_p <- res4f_branch2a_p
I0228 11:22:52.465421  9676 net.cpp:367] scale4f_branch2a_p -> res4f_branch2a_p (in-place)
I0228 11:22:52.465472  9676 layer_factory.hpp:77] Creating layer scale4f_branch2a_p
I0228 11:22:52.465615  9676 net.cpp:122] Setting up scale4f_branch2a_p
I0228 11:22:52.465622  9676 net.cpp:129] Top shape: 8 256 14 14 (401408)
I0228 11:22:52.465626  9676 net.cpp:137] Memory required for data: 3575873536
I0228 11:22:52.465631  9676 net.cpp:465] Sharing parameters 'scale4f_branch2a_alpha' owned by layer 'scale4f_branch2a', param index 0
I0228 11:22:52.465637  9676 net.cpp:465] Sharing parameters 'scale4f_branch2a_beta' owned by layer 'scale4f_branch2a', param index 1
I0228 11:22:52.465641  9676 layer_factory.hpp:77] Creating layer res4f_branch2a_relu_p
I0228 11:22:52.465646  9676 net.cpp:84] Creating Layer res4f_branch2a_relu_p
I0228 11:22:52.465651  9676 net.cpp:406] res4f_branch2a_relu_p <- res4f_branch2a_p
I0228 11:22:52.465656  9676 net.cpp:367] res4f_branch2a_relu_p -> res4f_branch2a_p (in-place)
I0228 11:22:52.465834  9676 net.cpp:122] Setting up res4f_branch2a_relu_p
I0228 11:22:52.465843  9676 net.cpp:129] Top shape: 8 256 14 14 (401408)
I0228 11:22:52.465847  9676 net.cpp:137] Memory required for data: 3577479168
I0228 11:22:52.465852  9676 layer_factory.hpp:77] Creating layer res4f_branch2b_p
I0228 11:22:52.465862  9676 net.cpp:84] Creating Layer res4f_branch2b_p
I0228 11:22:52.465867  9676 net.cpp:406] res4f_branch2b_p <- res4f_branch2a_p
I0228 11:22:52.465873  9676 net.cpp:380] res4f_branch2b_p -> res4f_branch2b_p
I0228 11:22:52.468945  9676 net.cpp:122] Setting up res4f_branch2b_p
I0228 11:22:52.468960  9676 net.cpp:129] Top shape: 8 256 14 14 (401408)
I0228 11:22:52.468963  9676 net.cpp:137] Memory required for data: 3579084800
I0228 11:22:52.468969  9676 net.cpp:465] Sharing parameters 'res4f_branch2b_w' owned by layer 'res4f_branch2b', param index 0
I0228 11:22:52.468974  9676 layer_factory.hpp:77] Creating layer bn4f_branch2b_p
I0228 11:22:52.468982  9676 net.cpp:84] Creating Layer bn4f_branch2b_p
I0228 11:22:52.468987  9676 net.cpp:406] bn4f_branch2b_p <- res4f_branch2b_p
I0228 11:22:52.468994  9676 net.cpp:367] bn4f_branch2b_p -> res4f_branch2b_p (in-place)
I0228 11:22:52.469249  9676 net.cpp:122] Setting up bn4f_branch2b_p
I0228 11:22:52.469255  9676 net.cpp:129] Top shape: 8 256 14 14 (401408)
I0228 11:22:52.469259  9676 net.cpp:137] Memory required for data: 3580690432
I0228 11:22:52.469265  9676 net.cpp:465] Sharing parameters 'bn4f_branch2b_mean' owned by layer 'bn4f_branch2b', param index 0
I0228 11:22:52.469270  9676 net.cpp:465] Sharing parameters 'bn4f_branch2b_variance' owned by layer 'bn4f_branch2b', param index 1
I0228 11:22:52.469275  9676 net.cpp:465] Sharing parameters 'bn4f_branch2b_scale_factor' owned by layer 'bn4f_branch2b', param index 2
I0228 11:22:52.469280  9676 layer_factory.hpp:77] Creating layer scale4f_branch2b_p
I0228 11:22:52.469285  9676 net.cpp:84] Creating Layer scale4f_branch2b_p
I0228 11:22:52.469290  9676 net.cpp:406] scale4f_branch2b_p <- res4f_branch2b_p
I0228 11:22:52.469295  9676 net.cpp:367] scale4f_branch2b_p -> res4f_branch2b_p (in-place)
I0228 11:22:52.469347  9676 layer_factory.hpp:77] Creating layer scale4f_branch2b_p
I0228 11:22:52.469492  9676 net.cpp:122] Setting up scale4f_branch2b_p
I0228 11:22:52.469499  9676 net.cpp:129] Top shape: 8 256 14 14 (401408)
I0228 11:22:52.469503  9676 net.cpp:137] Memory required for data: 3582296064
I0228 11:22:52.469511  9676 net.cpp:465] Sharing parameters 'scale4f_branch2b_alpha' owned by layer 'scale4f_branch2b', param index 0
I0228 11:22:52.469517  9676 net.cpp:465] Sharing parameters 'scale4f_branch2b_beta' owned by layer 'scale4f_branch2b', param index 1
I0228 11:22:52.469522  9676 layer_factory.hpp:77] Creating layer res4f_branch2b_relu_p
I0228 11:22:52.469528  9676 net.cpp:84] Creating Layer res4f_branch2b_relu_p
I0228 11:22:52.469532  9676 net.cpp:406] res4f_branch2b_relu_p <- res4f_branch2b_p
I0228 11:22:52.469537  9676 net.cpp:367] res4f_branch2b_relu_p -> res4f_branch2b_p (in-place)
I0228 11:22:52.469730  9676 net.cpp:122] Setting up res4f_branch2b_relu_p
I0228 11:22:52.469740  9676 net.cpp:129] Top shape: 8 256 14 14 (401408)
I0228 11:22:52.469743  9676 net.cpp:137] Memory required for data: 3583901696
I0228 11:22:52.469748  9676 layer_factory.hpp:77] Creating layer res4f_branch2c_p
I0228 11:22:52.469758  9676 net.cpp:84] Creating Layer res4f_branch2c_p
I0228 11:22:52.469761  9676 net.cpp:406] res4f_branch2c_p <- res4f_branch2b_p
I0228 11:22:52.469769  9676 net.cpp:380] res4f_branch2c_p -> res4f_branch2c_p
I0228 11:22:52.471962  9676 net.cpp:122] Setting up res4f_branch2c_p
I0228 11:22:52.471976  9676 net.cpp:129] Top shape: 8 1024 14 14 (1605632)
I0228 11:22:52.471981  9676 net.cpp:137] Memory required for data: 3590324224
I0228 11:22:52.471987  9676 net.cpp:465] Sharing parameters 'res4f_branch2c_w' owned by layer 'res4f_branch2c', param index 0
I0228 11:22:52.471992  9676 layer_factory.hpp:77] Creating layer bn4f_branch2c_p
I0228 11:22:52.471999  9676 net.cpp:84] Creating Layer bn4f_branch2c_p
I0228 11:22:52.472004  9676 net.cpp:406] bn4f_branch2c_p <- res4f_branch2c_p
I0228 11:22:52.472010  9676 net.cpp:367] bn4f_branch2c_p -> res4f_branch2c_p (in-place)
I0228 11:22:52.472266  9676 net.cpp:122] Setting up bn4f_branch2c_p
I0228 11:22:52.472273  9676 net.cpp:129] Top shape: 8 1024 14 14 (1605632)
I0228 11:22:52.472277  9676 net.cpp:137] Memory required for data: 3596746752
I0228 11:22:52.472283  9676 net.cpp:465] Sharing parameters 'bn4f_branch2c_mean' owned by layer 'bn4f_branch2c', param index 0
I0228 11:22:52.472288  9676 net.cpp:465] Sharing parameters 'bn4f_branch2c_variance' owned by layer 'bn4f_branch2c', param index 1
I0228 11:22:52.472293  9676 net.cpp:465] Sharing parameters 'bn4f_branch2c_scale_factor' owned by layer 'bn4f_branch2c', param index 2
I0228 11:22:52.472298  9676 layer_factory.hpp:77] Creating layer scale4f_branch2c_p
I0228 11:22:52.472304  9676 net.cpp:84] Creating Layer scale4f_branch2c_p
I0228 11:22:52.472308  9676 net.cpp:406] scale4f_branch2c_p <- res4f_branch2c_p
I0228 11:22:52.472313  9676 net.cpp:367] scale4f_branch2c_p -> res4f_branch2c_p (in-place)
I0228 11:22:52.472365  9676 layer_factory.hpp:77] Creating layer scale4f_branch2c_p
I0228 11:22:52.472512  9676 net.cpp:122] Setting up scale4f_branch2c_p
I0228 11:22:52.472522  9676 net.cpp:129] Top shape: 8 1024 14 14 (1605632)
I0228 11:22:52.472524  9676 net.cpp:137] Memory required for data: 3603169280
I0228 11:22:52.472529  9676 net.cpp:465] Sharing parameters 'scale4f_branch2c_alpha' owned by layer 'scale4f_branch2c', param index 0
I0228 11:22:52.472535  9676 net.cpp:465] Sharing parameters 'scale4f_branch2c_beta' owned by layer 'scale4f_branch2c', param index 1
I0228 11:22:52.472539  9676 layer_factory.hpp:77] Creating layer res4f_p
I0228 11:22:52.472545  9676 net.cpp:84] Creating Layer res4f_p
I0228 11:22:52.472549  9676 net.cpp:406] res4f_p <- res4e_p_res4e_relu_p_0_split_1
I0228 11:22:52.472554  9676 net.cpp:406] res4f_p <- res4f_branch2c_p
I0228 11:22:52.472559  9676 net.cpp:380] res4f_p -> res4f_p
I0228 11:22:52.472591  9676 net.cpp:122] Setting up res4f_p
I0228 11:22:52.472599  9676 net.cpp:129] Top shape: 8 1024 14 14 (1605632)
I0228 11:22:52.472601  9676 net.cpp:137] Memory required for data: 3609591808
I0228 11:22:52.472605  9676 layer_factory.hpp:77] Creating layer res4f_relu_p
I0228 11:22:52.472610  9676 net.cpp:84] Creating Layer res4f_relu_p
I0228 11:22:52.472615  9676 net.cpp:406] res4f_relu_p <- res4f_p
I0228 11:22:52.472622  9676 net.cpp:367] res4f_relu_p -> res4f_p (in-place)
I0228 11:22:52.472802  9676 net.cpp:122] Setting up res4f_relu_p
I0228 11:22:52.472811  9676 net.cpp:129] Top shape: 8 1024 14 14 (1605632)
I0228 11:22:52.472815  9676 net.cpp:137] Memory required for data: 3616014336
I0228 11:22:52.472820  9676 layer_factory.hpp:77] Creating layer res4f_p_res4f_relu_p_0_split
I0228 11:22:52.472826  9676 net.cpp:84] Creating Layer res4f_p_res4f_relu_p_0_split
I0228 11:22:52.472829  9676 net.cpp:406] res4f_p_res4f_relu_p_0_split <- res4f_p
I0228 11:22:52.472836  9676 net.cpp:380] res4f_p_res4f_relu_p_0_split -> res4f_p_res4f_relu_p_0_split_0
I0228 11:22:52.472842  9676 net.cpp:380] res4f_p_res4f_relu_p_0_split -> res4f_p_res4f_relu_p_0_split_1
I0228 11:22:52.472896  9676 net.cpp:122] Setting up res4f_p_res4f_relu_p_0_split
I0228 11:22:52.472903  9676 net.cpp:129] Top shape: 8 1024 14 14 (1605632)
I0228 11:22:52.472908  9676 net.cpp:129] Top shape: 8 1024 14 14 (1605632)
I0228 11:22:52.472911  9676 net.cpp:137] Memory required for data: 3628859392
I0228 11:22:52.472915  9676 layer_factory.hpp:77] Creating layer res5a_branch1_p
I0228 11:22:52.472928  9676 net.cpp:84] Creating Layer res5a_branch1_p
I0228 11:22:52.472932  9676 net.cpp:406] res5a_branch1_p <- res4f_p_res4f_relu_p_0_split_0
I0228 11:22:52.472937  9676 net.cpp:380] res5a_branch1_p -> res5a_branch1_p
I0228 11:22:52.477798  9676 net.cpp:122] Setting up res5a_branch1_p
I0228 11:22:52.477819  9676 net.cpp:129] Top shape: 8 2048 7 7 (802816)
I0228 11:22:52.477823  9676 net.cpp:137] Memory required for data: 3632070656
I0228 11:22:52.477830  9676 net.cpp:465] Sharing parameters 'res5a_branch1_w' owned by layer 'res5a_branch1', param index 0
I0228 11:22:52.477835  9676 layer_factory.hpp:77] Creating layer bn5a_branch1_p
I0228 11:22:52.477845  9676 net.cpp:84] Creating Layer bn5a_branch1_p
I0228 11:22:52.477850  9676 net.cpp:406] bn5a_branch1_p <- res5a_branch1_p
I0228 11:22:52.477856  9676 net.cpp:367] bn5a_branch1_p -> res5a_branch1_p (in-place)
I0228 11:22:52.478173  9676 net.cpp:122] Setting up bn5a_branch1_p
I0228 11:22:52.478183  9676 net.cpp:129] Top shape: 8 2048 7 7 (802816)
I0228 11:22:52.478185  9676 net.cpp:137] Memory required for data: 3635281920
I0228 11:22:52.478193  9676 net.cpp:465] Sharing parameters 'bn5a_branch1_mean' owned by layer 'bn5a_branch1', param index 0
I0228 11:22:52.478197  9676 net.cpp:465] Sharing parameters 'bn5a_branch1_variance' owned by layer 'bn5a_branch1', param index 1
I0228 11:22:52.478202  9676 net.cpp:465] Sharing parameters 'bn5a_branch1_scale_factor' owned by layer 'bn5a_branch1', param index 2
I0228 11:22:52.478209  9676 layer_factory.hpp:77] Creating layer scale5a_branch1_p
I0228 11:22:52.478215  9676 net.cpp:84] Creating Layer scale5a_branch1_p
I0228 11:22:52.478219  9676 net.cpp:406] scale5a_branch1_p <- res5a_branch1_p
I0228 11:22:52.478226  9676 net.cpp:367] scale5a_branch1_p -> res5a_branch1_p (in-place)
I0228 11:22:52.478283  9676 layer_factory.hpp:77] Creating layer scale5a_branch1_p
I0228 11:22:52.478459  9676 net.cpp:122] Setting up scale5a_branch1_p
I0228 11:22:52.478468  9676 net.cpp:129] Top shape: 8 2048 7 7 (802816)
I0228 11:22:52.478471  9676 net.cpp:137] Memory required for data: 3638493184
I0228 11:22:52.478477  9676 net.cpp:465] Sharing parameters 'scale5a_branch1_alpha' owned by layer 'scale5a_branch1', param index 0
I0228 11:22:52.478482  9676 net.cpp:465] Sharing parameters 'scale5a_branch1_beta' owned by layer 'scale5a_branch1', param index 1
I0228 11:22:52.478487  9676 layer_factory.hpp:77] Creating layer res5a_branch2a_p
I0228 11:22:52.478494  9676 net.cpp:84] Creating Layer res5a_branch2a_p
I0228 11:22:52.478498  9676 net.cpp:406] res5a_branch2a_p <- res4f_p_res4f_relu_p_0_split_1
I0228 11:22:52.478507  9676 net.cpp:380] res5a_branch2a_p -> res5a_branch2a_p
I0228 11:22:52.480799  9676 net.cpp:122] Setting up res5a_branch2a_p
I0228 11:22:52.480813  9676 net.cpp:129] Top shape: 8 512 7 7 (200704)
I0228 11:22:52.480818  9676 net.cpp:137] Memory required for data: 3639296000
I0228 11:22:52.480829  9676 net.cpp:465] Sharing parameters 'res5a_branch2a_w' owned by layer 'res5a_branch2a', param index 0
I0228 11:22:52.480832  9676 layer_factory.hpp:77] Creating layer bn5a_branch2a_p
I0228 11:22:52.480841  9676 net.cpp:84] Creating Layer bn5a_branch2a_p
I0228 11:22:52.480846  9676 net.cpp:406] bn5a_branch2a_p <- res5a_branch2a_p
I0228 11:22:52.480854  9676 net.cpp:367] bn5a_branch2a_p -> res5a_branch2a_p (in-place)
I0228 11:22:52.481113  9676 net.cpp:122] Setting up bn5a_branch2a_p
I0228 11:22:52.481122  9676 net.cpp:129] Top shape: 8 512 7 7 (200704)
I0228 11:22:52.481125  9676 net.cpp:137] Memory required for data: 3640098816
I0228 11:22:52.481130  9676 net.cpp:465] Sharing parameters 'bn5a_branch2a_mean' owned by layer 'bn5a_branch2a', param index 0
I0228 11:22:52.481135  9676 net.cpp:465] Sharing parameters 'bn5a_branch2a_variance' owned by layer 'bn5a_branch2a', param index 1
I0228 11:22:52.481140  9676 net.cpp:465] Sharing parameters 'bn5a_branch2a_scale_factor' owned by layer 'bn5a_branch2a', param index 2
I0228 11:22:52.481145  9676 layer_factory.hpp:77] Creating layer scale5a_branch2a_p
I0228 11:22:52.481153  9676 net.cpp:84] Creating Layer scale5a_branch2a_p
I0228 11:22:52.481158  9676 net.cpp:406] scale5a_branch2a_p <- res5a_branch2a_p
I0228 11:22:52.481163  9676 net.cpp:367] scale5a_branch2a_p -> res5a_branch2a_p (in-place)
I0228 11:22:52.481214  9676 layer_factory.hpp:77] Creating layer scale5a_branch2a_p
I0228 11:22:52.481365  9676 net.cpp:122] Setting up scale5a_branch2a_p
I0228 11:22:52.481372  9676 net.cpp:129] Top shape: 8 512 7 7 (200704)
I0228 11:22:52.481375  9676 net.cpp:137] Memory required for data: 3640901632
I0228 11:22:52.481380  9676 net.cpp:465] Sharing parameters 'scale5a_branch2a_alpha' owned by layer 'scale5a_branch2a', param index 0
I0228 11:22:52.481386  9676 net.cpp:465] Sharing parameters 'scale5a_branch2a_beta' owned by layer 'scale5a_branch2a', param index 1
I0228 11:22:52.481390  9676 layer_factory.hpp:77] Creating layer res5a_branch2a_relu_p
I0228 11:22:52.481397  9676 net.cpp:84] Creating Layer res5a_branch2a_relu_p
I0228 11:22:52.481401  9676 net.cpp:406] res5a_branch2a_relu_p <- res5a_branch2a_p
I0228 11:22:52.481406  9676 net.cpp:367] res5a_branch2a_relu_p -> res5a_branch2a_p (in-place)
I0228 11:22:52.481588  9676 net.cpp:122] Setting up res5a_branch2a_relu_p
I0228 11:22:52.481597  9676 net.cpp:129] Top shape: 8 512 7 7 (200704)
I0228 11:22:52.481600  9676 net.cpp:137] Memory required for data: 3641704448
I0228 11:22:52.481604  9676 layer_factory.hpp:77] Creating layer res5a_branch2b_p
I0228 11:22:52.481613  9676 net.cpp:84] Creating Layer res5a_branch2b_p
I0228 11:22:52.481617  9676 net.cpp:406] res5a_branch2b_p <- res5a_branch2a_p
I0228 11:22:52.481624  9676 net.cpp:380] res5a_branch2b_p -> res5a_branch2b_p
I0228 11:22:52.486886  9676 net.cpp:122] Setting up res5a_branch2b_p
I0228 11:22:52.486903  9676 net.cpp:129] Top shape: 8 512 7 7 (200704)
I0228 11:22:52.486907  9676 net.cpp:137] Memory required for data: 3642507264
I0228 11:22:52.486915  9676 net.cpp:465] Sharing parameters 'res5a_branch2b_w' owned by layer 'res5a_branch2b', param index 0
I0228 11:22:52.486922  9676 layer_factory.hpp:77] Creating layer bn5a_branch2b_p
I0228 11:22:52.486932  9676 net.cpp:84] Creating Layer bn5a_branch2b_p
I0228 11:22:52.486935  9676 net.cpp:406] bn5a_branch2b_p <- res5a_branch2b_p
I0228 11:22:52.486941  9676 net.cpp:367] bn5a_branch2b_p -> res5a_branch2b_p (in-place)
I0228 11:22:52.487212  9676 net.cpp:122] Setting up bn5a_branch2b_p
I0228 11:22:52.487221  9676 net.cpp:129] Top shape: 8 512 7 7 (200704)
I0228 11:22:52.487223  9676 net.cpp:137] Memory required for data: 3643310080
I0228 11:22:52.487229  9676 net.cpp:465] Sharing parameters 'bn5a_branch2b_mean' owned by layer 'bn5a_branch2b', param index 0
I0228 11:22:52.487236  9676 net.cpp:465] Sharing parameters 'bn5a_branch2b_variance' owned by layer 'bn5a_branch2b', param index 1
I0228 11:22:52.487239  9676 net.cpp:465] Sharing parameters 'bn5a_branch2b_scale_factor' owned by layer 'bn5a_branch2b', param index 2
I0228 11:22:52.487247  9676 layer_factory.hpp:77] Creating layer scale5a_branch2b_p
I0228 11:22:52.487257  9676 net.cpp:84] Creating Layer scale5a_branch2b_p
I0228 11:22:52.487262  9676 net.cpp:406] scale5a_branch2b_p <- res5a_branch2b_p
I0228 11:22:52.487267  9676 net.cpp:367] scale5a_branch2b_p -> res5a_branch2b_p (in-place)
I0228 11:22:52.487321  9676 layer_factory.hpp:77] Creating layer scale5a_branch2b_p
I0228 11:22:52.487478  9676 net.cpp:122] Setting up scale5a_branch2b_p
I0228 11:22:52.487485  9676 net.cpp:129] Top shape: 8 512 7 7 (200704)
I0228 11:22:52.487488  9676 net.cpp:137] Memory required for data: 3644112896
I0228 11:22:52.487494  9676 net.cpp:465] Sharing parameters 'scale5a_branch2b_alpha' owned by layer 'scale5a_branch2b', param index 0
I0228 11:22:52.487499  9676 net.cpp:465] Sharing parameters 'scale5a_branch2b_beta' owned by layer 'scale5a_branch2b', param index 1
I0228 11:22:52.487504  9676 layer_factory.hpp:77] Creating layer res5a_branch2b_relu_p
I0228 11:22:52.487511  9676 net.cpp:84] Creating Layer res5a_branch2b_relu_p
I0228 11:22:52.487515  9676 net.cpp:406] res5a_branch2b_relu_p <- res5a_branch2b_p
I0228 11:22:52.487520  9676 net.cpp:367] res5a_branch2b_relu_p -> res5a_branch2b_p (in-place)
I0228 11:22:52.488034  9676 net.cpp:122] Setting up res5a_branch2b_relu_p
I0228 11:22:52.488047  9676 net.cpp:129] Top shape: 8 512 7 7 (200704)
I0228 11:22:52.488051  9676 net.cpp:137] Memory required for data: 3644915712
I0228 11:22:52.488056  9676 layer_factory.hpp:77] Creating layer res5a_branch2c_p
I0228 11:22:52.488066  9676 net.cpp:84] Creating Layer res5a_branch2c_p
I0228 11:22:52.488071  9676 net.cpp:406] res5a_branch2c_p <- res5a_branch2b_p
I0228 11:22:52.488078  9676 net.cpp:380] res5a_branch2c_p -> res5a_branch2c_p
I0228 11:22:52.491313  9676 net.cpp:122] Setting up res5a_branch2c_p
I0228 11:22:52.491328  9676 net.cpp:129] Top shape: 8 2048 7 7 (802816)
I0228 11:22:52.491333  9676 net.cpp:137] Memory required for data: 3648126976
I0228 11:22:52.491338  9676 net.cpp:465] Sharing parameters 'res5a_branch2c_w' owned by layer 'res5a_branch2c', param index 0
I0228 11:22:52.491343  9676 layer_factory.hpp:77] Creating layer bn5a_branch2c_p
I0228 11:22:52.491353  9676 net.cpp:84] Creating Layer bn5a_branch2c_p
I0228 11:22:52.491358  9676 net.cpp:406] bn5a_branch2c_p <- res5a_branch2c_p
I0228 11:22:52.491364  9676 net.cpp:367] bn5a_branch2c_p -> res5a_branch2c_p (in-place)
I0228 11:22:52.491632  9676 net.cpp:122] Setting up bn5a_branch2c_p
I0228 11:22:52.491641  9676 net.cpp:129] Top shape: 8 2048 7 7 (802816)
I0228 11:22:52.491644  9676 net.cpp:137] Memory required for data: 3651338240
I0228 11:22:52.491650  9676 net.cpp:465] Sharing parameters 'bn5a_branch2c_mean' owned by layer 'bn5a_branch2c', param index 0
I0228 11:22:52.491655  9676 net.cpp:465] Sharing parameters 'bn5a_branch2c_variance' owned by layer 'bn5a_branch2c', param index 1
I0228 11:22:52.491660  9676 net.cpp:465] Sharing parameters 'bn5a_branch2c_scale_factor' owned by layer 'bn5a_branch2c', param index 2
I0228 11:22:52.491664  9676 layer_factory.hpp:77] Creating layer scale5a_branch2c_p
I0228 11:22:52.491673  9676 net.cpp:84] Creating Layer scale5a_branch2c_p
I0228 11:22:52.491677  9676 net.cpp:406] scale5a_branch2c_p <- res5a_branch2c_p
I0228 11:22:52.491683  9676 net.cpp:367] scale5a_branch2c_p -> res5a_branch2c_p (in-place)
I0228 11:22:52.491736  9676 layer_factory.hpp:77] Creating layer scale5a_branch2c_p
I0228 11:22:52.491899  9676 net.cpp:122] Setting up scale5a_branch2c_p
I0228 11:22:52.491906  9676 net.cpp:129] Top shape: 8 2048 7 7 (802816)
I0228 11:22:52.491909  9676 net.cpp:137] Memory required for data: 3654549504
I0228 11:22:52.491915  9676 net.cpp:465] Sharing parameters 'scale5a_branch2c_alpha' owned by layer 'scale5a_branch2c', param index 0
I0228 11:22:52.491920  9676 net.cpp:465] Sharing parameters 'scale5a_branch2c_beta' owned by layer 'scale5a_branch2c', param index 1
I0228 11:22:52.491925  9676 layer_factory.hpp:77] Creating layer res5a_p
I0228 11:22:52.491930  9676 net.cpp:84] Creating Layer res5a_p
I0228 11:22:52.491940  9676 net.cpp:406] res5a_p <- res5a_branch1_p
I0228 11:22:52.491945  9676 net.cpp:406] res5a_p <- res5a_branch2c_p
I0228 11:22:52.491950  9676 net.cpp:380] res5a_p -> res5a_p
I0228 11:22:52.491983  9676 net.cpp:122] Setting up res5a_p
I0228 11:22:52.491991  9676 net.cpp:129] Top shape: 8 2048 7 7 (802816)
I0228 11:22:52.491994  9676 net.cpp:137] Memory required for data: 3657760768
I0228 11:22:52.491998  9676 layer_factory.hpp:77] Creating layer res5a_relu_p
I0228 11:22:52.492007  9676 net.cpp:84] Creating Layer res5a_relu_p
I0228 11:22:52.492010  9676 net.cpp:406] res5a_relu_p <- res5a_p
I0228 11:22:52.492014  9676 net.cpp:367] res5a_relu_p -> res5a_p (in-place)
I0228 11:22:52.492194  9676 net.cpp:122] Setting up res5a_relu_p
I0228 11:22:52.492205  9676 net.cpp:129] Top shape: 8 2048 7 7 (802816)
I0228 11:22:52.492208  9676 net.cpp:137] Memory required for data: 3660972032
I0228 11:22:52.492213  9676 layer_factory.hpp:77] Creating layer res5a_p_res5a_relu_p_0_split
I0228 11:22:52.492218  9676 net.cpp:84] Creating Layer res5a_p_res5a_relu_p_0_split
I0228 11:22:52.492223  9676 net.cpp:406] res5a_p_res5a_relu_p_0_split <- res5a_p
I0228 11:22:52.492228  9676 net.cpp:380] res5a_p_res5a_relu_p_0_split -> res5a_p_res5a_relu_p_0_split_0
I0228 11:22:52.492234  9676 net.cpp:380] res5a_p_res5a_relu_p_0_split -> res5a_p_res5a_relu_p_0_split_1
I0228 11:22:52.492288  9676 net.cpp:122] Setting up res5a_p_res5a_relu_p_0_split
I0228 11:22:52.492295  9676 net.cpp:129] Top shape: 8 2048 7 7 (802816)
I0228 11:22:52.492300  9676 net.cpp:129] Top shape: 8 2048 7 7 (802816)
I0228 11:22:52.492303  9676 net.cpp:137] Memory required for data: 3667394560
I0228 11:22:52.492306  9676 layer_factory.hpp:77] Creating layer res5b_branch2a_p
I0228 11:22:52.492316  9676 net.cpp:84] Creating Layer res5b_branch2a_p
I0228 11:22:52.492319  9676 net.cpp:406] res5b_branch2a_p <- res5a_p_res5a_relu_p_0_split_0
I0228 11:22:52.492327  9676 net.cpp:380] res5b_branch2a_p -> res5b_branch2a_p
I0228 11:22:52.495530  9676 net.cpp:122] Setting up res5b_branch2a_p
I0228 11:22:52.495548  9676 net.cpp:129] Top shape: 8 512 7 7 (200704)
I0228 11:22:52.495551  9676 net.cpp:137] Memory required for data: 3668197376
I0228 11:22:52.495558  9676 net.cpp:465] Sharing parameters 'res5b_branch2a_w' owned by layer 'res5b_branch2a', param index 0
I0228 11:22:52.495563  9676 layer_factory.hpp:77] Creating layer bn5b_branch2a_p
I0228 11:22:52.495573  9676 net.cpp:84] Creating Layer bn5b_branch2a_p
I0228 11:22:52.495577  9676 net.cpp:406] bn5b_branch2a_p <- res5b_branch2a_p
I0228 11:22:52.495584  9676 net.cpp:367] bn5b_branch2a_p -> res5b_branch2a_p (in-place)
I0228 11:22:52.495846  9676 net.cpp:122] Setting up bn5b_branch2a_p
I0228 11:22:52.495854  9676 net.cpp:129] Top shape: 8 512 7 7 (200704)
I0228 11:22:52.495858  9676 net.cpp:137] Memory required for data: 3669000192
I0228 11:22:52.495863  9676 net.cpp:465] Sharing parameters 'bn5b_branch2a_mean' owned by layer 'bn5b_branch2a', param index 0
I0228 11:22:52.495868  9676 net.cpp:465] Sharing parameters 'bn5b_branch2a_variance' owned by layer 'bn5b_branch2a', param index 1
I0228 11:22:52.495873  9676 net.cpp:465] Sharing parameters 'bn5b_branch2a_scale_factor' owned by layer 'bn5b_branch2a', param index 2
I0228 11:22:52.495877  9676 layer_factory.hpp:77] Creating layer scale5b_branch2a_p
I0228 11:22:52.495885  9676 net.cpp:84] Creating Layer scale5b_branch2a_p
I0228 11:22:52.495889  9676 net.cpp:406] scale5b_branch2a_p <- res5b_branch2a_p
I0228 11:22:52.495895  9676 net.cpp:367] scale5b_branch2a_p -> res5b_branch2a_p (in-place)
I0228 11:22:52.495949  9676 layer_factory.hpp:77] Creating layer scale5b_branch2a_p
I0228 11:22:52.496109  9676 net.cpp:122] Setting up scale5b_branch2a_p
I0228 11:22:52.496116  9676 net.cpp:129] Top shape: 8 512 7 7 (200704)
I0228 11:22:52.496120  9676 net.cpp:137] Memory required for data: 3669803008
I0228 11:22:52.496125  9676 net.cpp:465] Sharing parameters 'scale5b_branch2a_alpha' owned by layer 'scale5b_branch2a', param index 0
I0228 11:22:52.496130  9676 net.cpp:465] Sharing parameters 'scale5b_branch2a_beta' owned by layer 'scale5b_branch2a', param index 1
I0228 11:22:52.496137  9676 layer_factory.hpp:77] Creating layer res5b_branch2a_relu_p
I0228 11:22:52.496145  9676 net.cpp:84] Creating Layer res5b_branch2a_relu_p
I0228 11:22:52.496150  9676 net.cpp:406] res5b_branch2a_relu_p <- res5b_branch2a_p
I0228 11:22:52.496155  9676 net.cpp:367] res5b_branch2a_relu_p -> res5b_branch2a_p (in-place)
I0228 11:22:52.496335  9676 net.cpp:122] Setting up res5b_branch2a_relu_p
I0228 11:22:52.496345  9676 net.cpp:129] Top shape: 8 512 7 7 (200704)
I0228 11:22:52.496348  9676 net.cpp:137] Memory required for data: 3670605824
I0228 11:22:52.496353  9676 layer_factory.hpp:77] Creating layer res5b_branch2b_p
I0228 11:22:52.496362  9676 net.cpp:84] Creating Layer res5b_branch2b_p
I0228 11:22:52.496366  9676 net.cpp:406] res5b_branch2b_p <- res5b_branch2a_p
I0228 11:22:52.496374  9676 net.cpp:380] res5b_branch2b_p -> res5b_branch2b_p
I0228 11:22:52.501680  9676 net.cpp:122] Setting up res5b_branch2b_p
I0228 11:22:52.501701  9676 net.cpp:129] Top shape: 8 512 7 7 (200704)
I0228 11:22:52.501706  9676 net.cpp:137] Memory required for data: 3671408640
I0228 11:22:52.501713  9676 net.cpp:465] Sharing parameters 'res5b_branch2b_w' owned by layer 'res5b_branch2b', param index 0
I0228 11:22:52.501718  9676 layer_factory.hpp:77] Creating layer bn5b_branch2b_p
I0228 11:22:52.501727  9676 net.cpp:84] Creating Layer bn5b_branch2b_p
I0228 11:22:52.501734  9676 net.cpp:406] bn5b_branch2b_p <- res5b_branch2b_p
I0228 11:22:52.501741  9676 net.cpp:367] bn5b_branch2b_p -> res5b_branch2b_p (in-place)
I0228 11:22:52.502017  9676 net.cpp:122] Setting up bn5b_branch2b_p
I0228 11:22:52.502025  9676 net.cpp:129] Top shape: 8 512 7 7 (200704)
I0228 11:22:52.502029  9676 net.cpp:137] Memory required for data: 3672211456
I0228 11:22:52.502034  9676 net.cpp:465] Sharing parameters 'bn5b_branch2b_mean' owned by layer 'bn5b_branch2b', param index 0
I0228 11:22:52.502040  9676 net.cpp:465] Sharing parameters 'bn5b_branch2b_variance' owned by layer 'bn5b_branch2b', param index 1
I0228 11:22:52.502045  9676 net.cpp:465] Sharing parameters 'bn5b_branch2b_scale_factor' owned by layer 'bn5b_branch2b', param index 2
I0228 11:22:52.502050  9676 layer_factory.hpp:77] Creating layer scale5b_branch2b_p
I0228 11:22:52.502058  9676 net.cpp:84] Creating Layer scale5b_branch2b_p
I0228 11:22:52.502063  9676 net.cpp:406] scale5b_branch2b_p <- res5b_branch2b_p
I0228 11:22:52.502068  9676 net.cpp:367] scale5b_branch2b_p -> res5b_branch2b_p (in-place)
I0228 11:22:52.502152  9676 layer_factory.hpp:77] Creating layer scale5b_branch2b_p
I0228 11:22:52.502319  9676 net.cpp:122] Setting up scale5b_branch2b_p
I0228 11:22:52.502328  9676 net.cpp:129] Top shape: 8 512 7 7 (200704)
I0228 11:22:52.502331  9676 net.cpp:137] Memory required for data: 3673014272
I0228 11:22:52.502337  9676 net.cpp:465] Sharing parameters 'scale5b_branch2b_alpha' owned by layer 'scale5b_branch2b', param index 0
I0228 11:22:52.502343  9676 net.cpp:465] Sharing parameters 'scale5b_branch2b_beta' owned by layer 'scale5b_branch2b', param index 1
I0228 11:22:52.502347  9676 layer_factory.hpp:77] Creating layer res5b_branch2b_relu_p
I0228 11:22:52.502353  9676 net.cpp:84] Creating Layer res5b_branch2b_relu_p
I0228 11:22:52.502358  9676 net.cpp:406] res5b_branch2b_relu_p <- res5b_branch2b_p
I0228 11:22:52.502365  9676 net.cpp:367] res5b_branch2b_relu_p -> res5b_branch2b_p (in-place)
I0228 11:22:52.502569  9676 net.cpp:122] Setting up res5b_branch2b_relu_p
I0228 11:22:52.502578  9676 net.cpp:129] Top shape: 8 512 7 7 (200704)
I0228 11:22:52.502583  9676 net.cpp:137] Memory required for data: 3673817088
I0228 11:22:52.502586  9676 layer_factory.hpp:77] Creating layer res5b_branch2c_p
I0228 11:22:52.502596  9676 net.cpp:84] Creating Layer res5b_branch2c_p
I0228 11:22:52.502600  9676 net.cpp:406] res5b_branch2c_p <- res5b_branch2b_p
I0228 11:22:52.502607  9676 net.cpp:380] res5b_branch2c_p -> res5b_branch2c_p
I0228 11:22:52.505780  9676 net.cpp:122] Setting up res5b_branch2c_p
I0228 11:22:52.505795  9676 net.cpp:129] Top shape: 8 2048 7 7 (802816)
I0228 11:22:52.505802  9676 net.cpp:137] Memory required for data: 3677028352
I0228 11:22:52.505810  9676 net.cpp:465] Sharing parameters 'res5b_branch2c_w' owned by layer 'res5b_branch2c', param index 0
I0228 11:22:52.505815  9676 layer_factory.hpp:77] Creating layer bn5b_branch2c_p
I0228 11:22:52.505823  9676 net.cpp:84] Creating Layer bn5b_branch2c_p
I0228 11:22:52.505827  9676 net.cpp:406] bn5b_branch2c_p <- res5b_branch2c_p
I0228 11:22:52.505836  9676 net.cpp:367] bn5b_branch2c_p -> res5b_branch2c_p (in-place)
I0228 11:22:52.506137  9676 net.cpp:122] Setting up bn5b_branch2c_p
I0228 11:22:52.506146  9676 net.cpp:129] Top shape: 8 2048 7 7 (802816)
I0228 11:22:52.506150  9676 net.cpp:137] Memory required for data: 3680239616
I0228 11:22:52.506156  9676 net.cpp:465] Sharing parameters 'bn5b_branch2c_mean' owned by layer 'bn5b_branch2c', param index 0
I0228 11:22:52.506165  9676 net.cpp:465] Sharing parameters 'bn5b_branch2c_variance' owned by layer 'bn5b_branch2c', param index 1
I0228 11:22:52.506170  9676 net.cpp:465] Sharing parameters 'bn5b_branch2c_scale_factor' owned by layer 'bn5b_branch2c', param index 2
I0228 11:22:52.506173  9676 layer_factory.hpp:77] Creating layer scale5b_branch2c_p
I0228 11:22:52.506182  9676 net.cpp:84] Creating Layer scale5b_branch2c_p
I0228 11:22:52.506186  9676 net.cpp:406] scale5b_branch2c_p <- res5b_branch2c_p
I0228 11:22:52.506192  9676 net.cpp:367] scale5b_branch2c_p -> res5b_branch2c_p (in-place)
I0228 11:22:52.506249  9676 layer_factory.hpp:77] Creating layer scale5b_branch2c_p
I0228 11:22:52.506417  9676 net.cpp:122] Setting up scale5b_branch2c_p
I0228 11:22:52.506440  9676 net.cpp:129] Top shape: 8 2048 7 7 (802816)
I0228 11:22:52.506443  9676 net.cpp:137] Memory required for data: 3683450880
I0228 11:22:52.506448  9676 net.cpp:465] Sharing parameters 'scale5b_branch2c_alpha' owned by layer 'scale5b_branch2c', param index 0
I0228 11:22:52.506454  9676 net.cpp:465] Sharing parameters 'scale5b_branch2c_beta' owned by layer 'scale5b_branch2c', param index 1
I0228 11:22:52.506458  9676 layer_factory.hpp:77] Creating layer res5b_p
I0228 11:22:52.506464  9676 net.cpp:84] Creating Layer res5b_p
I0228 11:22:52.506469  9676 net.cpp:406] res5b_p <- res5a_p_res5a_relu_p_0_split_1
I0228 11:22:52.506474  9676 net.cpp:406] res5b_p <- res5b_branch2c_p
I0228 11:22:52.506480  9676 net.cpp:380] res5b_p -> res5b_p
I0228 11:22:52.506512  9676 net.cpp:122] Setting up res5b_p
I0228 11:22:52.506520  9676 net.cpp:129] Top shape: 8 2048 7 7 (802816)
I0228 11:22:52.506522  9676 net.cpp:137] Memory required for data: 3686662144
I0228 11:22:52.506526  9676 layer_factory.hpp:77] Creating layer res5b_relu_p
I0228 11:22:52.506533  9676 net.cpp:84] Creating Layer res5b_relu_p
I0228 11:22:52.506537  9676 net.cpp:406] res5b_relu_p <- res5b_p
I0228 11:22:52.506541  9676 net.cpp:367] res5b_relu_p -> res5b_p (in-place)
I0228 11:22:52.506722  9676 net.cpp:122] Setting up res5b_relu_p
I0228 11:22:52.506731  9676 net.cpp:129] Top shape: 8 2048 7 7 (802816)
I0228 11:22:52.506733  9676 net.cpp:137] Memory required for data: 3689873408
I0228 11:22:52.506737  9676 layer_factory.hpp:77] Creating layer res5b_p_res5b_relu_p_0_split
I0228 11:22:52.506745  9676 net.cpp:84] Creating Layer res5b_p_res5b_relu_p_0_split
I0228 11:22:52.506748  9676 net.cpp:406] res5b_p_res5b_relu_p_0_split <- res5b_p
I0228 11:22:52.506754  9676 net.cpp:380] res5b_p_res5b_relu_p_0_split -> res5b_p_res5b_relu_p_0_split_0
I0228 11:22:52.506762  9676 net.cpp:380] res5b_p_res5b_relu_p_0_split -> res5b_p_res5b_relu_p_0_split_1
I0228 11:22:52.506816  9676 net.cpp:122] Setting up res5b_p_res5b_relu_p_0_split
I0228 11:22:52.506824  9676 net.cpp:129] Top shape: 8 2048 7 7 (802816)
I0228 11:22:52.506827  9676 net.cpp:129] Top shape: 8 2048 7 7 (802816)
I0228 11:22:52.506831  9676 net.cpp:137] Memory required for data: 3696295936
I0228 11:22:52.506834  9676 layer_factory.hpp:77] Creating layer res5c_branch2a_p
I0228 11:22:52.506844  9676 net.cpp:84] Creating Layer res5c_branch2a_p
I0228 11:22:52.506847  9676 net.cpp:406] res5c_branch2a_p <- res5b_p_res5b_relu_p_0_split_0
I0228 11:22:52.506858  9676 net.cpp:380] res5c_branch2a_p -> res5c_branch2a_p
I0228 11:22:52.509991  9676 net.cpp:122] Setting up res5c_branch2a_p
I0228 11:22:52.510007  9676 net.cpp:129] Top shape: 8 512 7 7 (200704)
I0228 11:22:52.510011  9676 net.cpp:137] Memory required for data: 3697098752
I0228 11:22:52.510017  9676 net.cpp:465] Sharing parameters 'res5c_branch2a_w' owned by layer 'res5c_branch2a', param index 0
I0228 11:22:52.510025  9676 layer_factory.hpp:77] Creating layer bn5c_branch2a_p
I0228 11:22:52.510032  9676 net.cpp:84] Creating Layer bn5c_branch2a_p
I0228 11:22:52.510037  9676 net.cpp:406] bn5c_branch2a_p <- res5c_branch2a_p
I0228 11:22:52.510047  9676 net.cpp:367] bn5c_branch2a_p -> res5c_branch2a_p (in-place)
I0228 11:22:52.510360  9676 net.cpp:122] Setting up bn5c_branch2a_p
I0228 11:22:52.510370  9676 net.cpp:129] Top shape: 8 512 7 7 (200704)
I0228 11:22:52.510372  9676 net.cpp:137] Memory required for data: 3697901568
I0228 11:22:52.510380  9676 net.cpp:465] Sharing parameters 'bn5c_branch2a_mean' owned by layer 'bn5c_branch2a', param index 0
I0228 11:22:52.510385  9676 net.cpp:465] Sharing parameters 'bn5c_branch2a_variance' owned by layer 'bn5c_branch2a', param index 1
I0228 11:22:52.510390  9676 net.cpp:465] Sharing parameters 'bn5c_branch2a_scale_factor' owned by layer 'bn5c_branch2a', param index 2
I0228 11:22:52.510393  9676 layer_factory.hpp:77] Creating layer scale5c_branch2a_p
I0228 11:22:52.510401  9676 net.cpp:84] Creating Layer scale5c_branch2a_p
I0228 11:22:52.510406  9676 net.cpp:406] scale5c_branch2a_p <- res5c_branch2a_p
I0228 11:22:52.510411  9676 net.cpp:367] scale5c_branch2a_p -> res5c_branch2a_p (in-place)
I0228 11:22:52.510480  9676 layer_factory.hpp:77] Creating layer scale5c_branch2a_p
I0228 11:22:52.510639  9676 net.cpp:122] Setting up scale5c_branch2a_p
I0228 11:22:52.510648  9676 net.cpp:129] Top shape: 8 512 7 7 (200704)
I0228 11:22:52.510650  9676 net.cpp:137] Memory required for data: 3698704384
I0228 11:22:52.510656  9676 net.cpp:465] Sharing parameters 'scale5c_branch2a_alpha' owned by layer 'scale5c_branch2a', param index 0
I0228 11:22:52.510661  9676 net.cpp:465] Sharing parameters 'scale5c_branch2a_beta' owned by layer 'scale5c_branch2a', param index 1
I0228 11:22:52.510665  9676 layer_factory.hpp:77] Creating layer res5c_branch2a_relu_p
I0228 11:22:52.510670  9676 net.cpp:84] Creating Layer res5c_branch2a_relu_p
I0228 11:22:52.510674  9676 net.cpp:406] res5c_branch2a_relu_p <- res5c_branch2a_p
I0228 11:22:52.510681  9676 net.cpp:367] res5c_branch2a_relu_p -> res5c_branch2a_p (in-place)
I0228 11:22:52.510864  9676 net.cpp:122] Setting up res5c_branch2a_relu_p
I0228 11:22:52.510874  9676 net.cpp:129] Top shape: 8 512 7 7 (200704)
I0228 11:22:52.510876  9676 net.cpp:137] Memory required for data: 3699507200
I0228 11:22:52.510881  9676 layer_factory.hpp:77] Creating layer res5c_branch2b_p
I0228 11:22:52.510891  9676 net.cpp:84] Creating Layer res5c_branch2b_p
I0228 11:22:52.510895  9676 net.cpp:406] res5c_branch2b_p <- res5c_branch2a_p
I0228 11:22:52.510901  9676 net.cpp:380] res5c_branch2b_p -> res5c_branch2b_p
I0228 11:22:52.516360  9676 net.cpp:122] Setting up res5c_branch2b_p
I0228 11:22:52.516382  9676 net.cpp:129] Top shape: 8 512 7 7 (200704)
I0228 11:22:52.516386  9676 net.cpp:137] Memory required for data: 3700310016
I0228 11:22:52.516394  9676 net.cpp:465] Sharing parameters 'res5c_branch2b_w' owned by layer 'res5c_branch2b', param index 0
I0228 11:22:52.516399  9676 layer_factory.hpp:77] Creating layer bn5c_branch2b_p
I0228 11:22:52.516410  9676 net.cpp:84] Creating Layer bn5c_branch2b_p
I0228 11:22:52.516417  9676 net.cpp:406] bn5c_branch2b_p <- res5c_branch2b_p
I0228 11:22:52.516424  9676 net.cpp:367] bn5c_branch2b_p -> res5c_branch2b_p (in-place)
I0228 11:22:52.516703  9676 net.cpp:122] Setting up bn5c_branch2b_p
I0228 11:22:52.516711  9676 net.cpp:129] Top shape: 8 512 7 7 (200704)
I0228 11:22:52.516715  9676 net.cpp:137] Memory required for data: 3701112832
I0228 11:22:52.516721  9676 net.cpp:465] Sharing parameters 'bn5c_branch2b_mean' owned by layer 'bn5c_branch2b', param index 0
I0228 11:22:52.516731  9676 net.cpp:465] Sharing parameters 'bn5c_branch2b_variance' owned by layer 'bn5c_branch2b', param index 1
I0228 11:22:52.516736  9676 net.cpp:465] Sharing parameters 'bn5c_branch2b_scale_factor' owned by layer 'bn5c_branch2b', param index 2
I0228 11:22:52.516739  9676 layer_factory.hpp:77] Creating layer scale5c_branch2b_p
I0228 11:22:52.516748  9676 net.cpp:84] Creating Layer scale5c_branch2b_p
I0228 11:22:52.516752  9676 net.cpp:406] scale5c_branch2b_p <- res5c_branch2b_p
I0228 11:22:52.516757  9676 net.cpp:367] scale5c_branch2b_p -> res5c_branch2b_p (in-place)
I0228 11:22:52.516816  9676 layer_factory.hpp:77] Creating layer scale5c_branch2b_p
I0228 11:22:52.516979  9676 net.cpp:122] Setting up scale5c_branch2b_p
I0228 11:22:52.516988  9676 net.cpp:129] Top shape: 8 512 7 7 (200704)
I0228 11:22:52.516991  9676 net.cpp:137] Memory required for data: 3701915648
I0228 11:22:52.516997  9676 net.cpp:465] Sharing parameters 'scale5c_branch2b_alpha' owned by layer 'scale5c_branch2b', param index 0
I0228 11:22:52.517002  9676 net.cpp:465] Sharing parameters 'scale5c_branch2b_beta' owned by layer 'scale5c_branch2b', param index 1
I0228 11:22:52.517009  9676 layer_factory.hpp:77] Creating layer res5c_branch2b_relu_p
I0228 11:22:52.517014  9676 net.cpp:84] Creating Layer res5c_branch2b_relu_p
I0228 11:22:52.517019  9676 net.cpp:406] res5c_branch2b_relu_p <- res5c_branch2b_p
I0228 11:22:52.517025  9676 net.cpp:367] res5c_branch2b_relu_p -> res5c_branch2b_p (in-place)
I0228 11:22:52.517566  9676 net.cpp:122] Setting up res5c_branch2b_relu_p
I0228 11:22:52.517580  9676 net.cpp:129] Top shape: 8 512 7 7 (200704)
I0228 11:22:52.517585  9676 net.cpp:137] Memory required for data: 3702718464
I0228 11:22:52.517588  9676 layer_factory.hpp:77] Creating layer res5c_branch2c_p
I0228 11:22:52.517602  9676 net.cpp:84] Creating Layer res5c_branch2c_p
I0228 11:22:52.517606  9676 net.cpp:406] res5c_branch2c_p <- res5c_branch2b_p
I0228 11:22:52.517614  9676 net.cpp:380] res5c_branch2c_p -> res5c_branch2c_p
I0228 11:22:52.520859  9676 net.cpp:122] Setting up res5c_branch2c_p
I0228 11:22:52.520874  9676 net.cpp:129] Top shape: 8 2048 7 7 (802816)
I0228 11:22:52.520879  9676 net.cpp:137] Memory required for data: 3705929728
I0228 11:22:52.520884  9676 net.cpp:465] Sharing parameters 'res5c_branch2c_w' owned by layer 'res5c_branch2c', param index 0
I0228 11:22:52.520889  9676 layer_factory.hpp:77] Creating layer bn5c_branch2c_p
I0228 11:22:52.520898  9676 net.cpp:84] Creating Layer bn5c_branch2c_p
I0228 11:22:52.520903  9676 net.cpp:406] bn5c_branch2c_p <- res5c_branch2c_p
I0228 11:22:52.520910  9676 net.cpp:367] bn5c_branch2c_p -> res5c_branch2c_p (in-place)
I0228 11:22:52.521190  9676 net.cpp:122] Setting up bn5c_branch2c_p
I0228 11:22:52.521198  9676 net.cpp:129] Top shape: 8 2048 7 7 (802816)
I0228 11:22:52.521201  9676 net.cpp:137] Memory required for data: 3709140992
I0228 11:22:52.521208  9676 net.cpp:465] Sharing parameters 'bn5c_branch2c_mean' owned by layer 'bn5c_branch2c', param index 0
I0228 11:22:52.521212  9676 net.cpp:465] Sharing parameters 'bn5c_branch2c_variance' owned by layer 'bn5c_branch2c', param index 1
I0228 11:22:52.521217  9676 net.cpp:465] Sharing parameters 'bn5c_branch2c_scale_factor' owned by layer 'bn5c_branch2c', param index 2
I0228 11:22:52.521222  9676 layer_factory.hpp:77] Creating layer scale5c_branch2c_p
I0228 11:22:52.521229  9676 net.cpp:84] Creating Layer scale5c_branch2c_p
I0228 11:22:52.521234  9676 net.cpp:406] scale5c_branch2c_p <- res5c_branch2c_p
I0228 11:22:52.521240  9676 net.cpp:367] scale5c_branch2c_p -> res5c_branch2c_p (in-place)
I0228 11:22:52.521294  9676 layer_factory.hpp:77] Creating layer scale5c_branch2c_p
I0228 11:22:52.521457  9676 net.cpp:122] Setting up scale5c_branch2c_p
I0228 11:22:52.521464  9676 net.cpp:129] Top shape: 8 2048 7 7 (802816)
I0228 11:22:52.521468  9676 net.cpp:137] Memory required for data: 3712352256
I0228 11:22:52.521474  9676 net.cpp:465] Sharing parameters 'scale5c_branch2c_alpha' owned by layer 'scale5c_branch2c', param index 0
I0228 11:22:52.521483  9676 net.cpp:465] Sharing parameters 'scale5c_branch2c_beta' owned by layer 'scale5c_branch2c', param index 1
I0228 11:22:52.521487  9676 layer_factory.hpp:77] Creating layer res5c_p
I0228 11:22:52.521494  9676 net.cpp:84] Creating Layer res5c_p
I0228 11:22:52.521498  9676 net.cpp:406] res5c_p <- res5b_p_res5b_relu_p_0_split_1
I0228 11:22:52.521503  9676 net.cpp:406] res5c_p <- res5c_branch2c_p
I0228 11:22:52.521508  9676 net.cpp:380] res5c_p -> res5c_p
I0228 11:22:52.521544  9676 net.cpp:122] Setting up res5c_p
I0228 11:22:52.521551  9676 net.cpp:129] Top shape: 8 2048 7 7 (802816)
I0228 11:22:52.521554  9676 net.cpp:137] Memory required for data: 3715563520
I0228 11:22:52.521559  9676 layer_factory.hpp:77] Creating layer res5c_relu_p
I0228 11:22:52.521565  9676 net.cpp:84] Creating Layer res5c_relu_p
I0228 11:22:52.521569  9676 net.cpp:406] res5c_relu_p <- res5c_p
I0228 11:22:52.521574  9676 net.cpp:367] res5c_relu_p -> res5c_p (in-place)
I0228 11:22:52.521759  9676 net.cpp:122] Setting up res5c_relu_p
I0228 11:22:52.521767  9676 net.cpp:129] Top shape: 8 2048 7 7 (802816)
I0228 11:22:52.521771  9676 net.cpp:137] Memory required for data: 3718774784
I0228 11:22:52.521776  9676 layer_factory.hpp:77] Creating layer pool_p
I0228 11:22:52.521782  9676 net.cpp:84] Creating Layer pool_p
I0228 11:22:52.521786  9676 net.cpp:406] pool_p <- res5c_p
I0228 11:22:52.521795  9676 net.cpp:380] pool_p -> pool_p
I0228 11:22:52.522002  9676 net.cpp:122] Setting up pool_p
I0228 11:22:52.522011  9676 net.cpp:129] Top shape: 8 2048 1 1 (16384)
I0228 11:22:52.522016  9676 net.cpp:137] Memory required for data: 3718840320
I0228 11:22:52.522019  9676 layer_factory.hpp:77] Creating layer ip1_p
I0228 11:22:52.522028  9676 net.cpp:84] Creating Layer ip1_p
I0228 11:22:52.522032  9676 net.cpp:406] ip1_p <- pool_p
I0228 11:22:52.522039  9676 net.cpp:380] ip1_p -> ip1_p
I0228 11:22:52.528713  9676 net.cpp:122] Setting up ip1_p
I0228 11:22:52.528728  9676 net.cpp:129] Top shape: 8 512 (4096)
I0228 11:22:52.528733  9676 net.cpp:137] Memory required for data: 3718856704
I0228 11:22:52.528739  9676 net.cpp:465] Sharing parameters 'ip1_w' owned by layer 'ip1', param index 0
I0228 11:22:52.528744  9676 net.cpp:465] Sharing parameters 'ip1_b' owned by layer 'ip1', param index 1
I0228 11:22:52.528748  9676 layer_factory.hpp:77] Creating layer relu1_p
I0228 11:22:52.528754  9676 net.cpp:84] Creating Layer relu1_p
I0228 11:22:52.528759  9676 net.cpp:406] relu1_p <- ip1_p
I0228 11:22:52.528766  9676 net.cpp:367] relu1_p -> ip1_p (in-place)
I0228 11:22:52.528962  9676 net.cpp:122] Setting up relu1_p
I0228 11:22:52.528970  9676 net.cpp:129] Top shape: 8 512 (4096)
I0228 11:22:52.528975  9676 net.cpp:137] Memory required for data: 3718873088
I0228 11:22:52.528978  9676 layer_factory.hpp:77] Creating layer ip2_p
I0228 11:22:52.528985  9676 net.cpp:84] Creating Layer ip2_p
I0228 11:22:52.528992  9676 net.cpp:406] ip2_p <- ip1_p
I0228 11:22:52.528998  9676 net.cpp:380] ip2_p -> ip2_p
I0228 11:22:52.530484  9676 net.cpp:122] Setting up ip2_p
I0228 11:22:52.530493  9676 net.cpp:129] Top shape: 8 512 (4096)
I0228 11:22:52.530495  9676 net.cpp:137] Memory required for data: 3718889472
I0228 11:22:52.530501  9676 net.cpp:465] Sharing parameters 'ip2_w' owned by layer 'ip2', param index 0
I0228 11:22:52.530506  9676 net.cpp:465] Sharing parameters 'ip2_b' owned by layer 'ip2', param index 1
I0228 11:22:52.530511  9676 layer_factory.hpp:77] Creating layer feat_p
I0228 11:22:52.530519  9676 net.cpp:84] Creating Layer feat_p
I0228 11:22:52.530522  9676 net.cpp:406] feat_p <- ip2_p
I0228 11:22:52.530529  9676 net.cpp:380] feat_p -> feat_p
I0228 11:22:52.532830  9676 net.cpp:122] Setting up feat_p
I0228 11:22:52.532845  9676 net.cpp:129] Top shape: 8 512 (4096)
I0228 11:22:52.532848  9676 net.cpp:137] Memory required for data: 3718905856
I0228 11:22:52.532855  9676 net.cpp:465] Sharing parameters 'feat_w' owned by layer 'feat', param index 0
I0228 11:22:52.532860  9676 net.cpp:465] Sharing parameters 'feat_b' owned by layer 'feat', param index 1
I0228 11:22:52.532866  9676 layer_factory.hpp:77] Creating layer loss
I0228 11:22:52.551188  9676 net.cpp:84] Creating Layer loss
I0228 11:22:52.551213  9676 net.cpp:406] loss <- feat
I0228 11:22:52.551220  9676 net.cpp:406] loss <- feat_p
I0228 11:22:52.551228  9676 net.cpp:380] loss -> loss
I0228 11:22:52.551724  9676 net.cpp:122] Setting up loss
I0228 11:22:52.551738  9676 net.cpp:129] Top shape: 1 (1)
I0228 11:22:52.551741  9676 net.cpp:132]     with loss weight 1
I0228 11:22:52.551751  9676 net.cpp:137] Memory required for data: 3718905860
I0228 11:22:52.551755  9676 net.cpp:198] loss needs backward computation.
I0228 11:22:52.551760  9676 net.cpp:198] feat_p needs backward computation.
I0228 11:22:52.551764  9676 net.cpp:198] ip2_p needs backward computation.
I0228 11:22:52.551769  9676 net.cpp:198] relu1_p needs backward computation.
…
